…
I1202 15:43:32.419834  3689 net.cpp:58] Initializing net from parameters: 
name: "Res50-base"
state {
  phase: TRAIN
  level: 0
  stage: ""
}
layer {
  name: "data"
  type: "ImageData"
  top: "data"
  top: "label"
  include {
    phase: TRAIN
  }
  transform_param {
    mirror: true
    crop_size: 224
    mean_value: 104
    mean_value: 117
    mean_value: 124
  }
  image_data_param {
    source: "market_evaluation/dataset/train.txt"
    batch_size: 16
    shuffle: true
    new_height: 224
    new_width: 224
    is_color: true
    root_folder: "market_evaluation/"
  }
}
layer {
  name: "conv1"
  type: "Convolution"
  bottom: "data"
  top: "conv1"
  convolution_param {
    num_output: 64
    pad: 3
    kernel_size: 7
    stride: 2
  }
}
layer {
  name: "bn_conv1"
  type: "BatchNorm"
  bottom: "conv1"
  top: "conv1"
  batch_norm_param {
    use_global_stats: true
  }
}
layer {
  name: "scale_conv1"
  type: "Scale"
  bottom: "conv1"
  top: "conv1"
  scale_param {
    bias_term: true
  }
}
layer {
  name: "conv1_relu"
  type: "ReLU"
  bottom: "conv1"
  top: "conv1"
}
layer {
  name: "pool1"
  type: "Pooling"
  bottom: "conv1"
  top: "pool1"
  pooling_param {
    pool: MAX
    kernel_size: 3
    stride: 2
  }
}
layer {
  name: "res2a_branch1"
  type: "Convolution"
  bottom: "pool1"
  top: "res2a_branch1"
  convolution_param {
    num_output: 256
    bias_term: false
    pad: 0
    kernel_size: 1
    stride: 1
  }
}
layer {
  name: "bn2a_branch1"
  type: "BatchNorm"
  bottom: "res2a_branch1"
  top: "res2a_branch1"
  batch_norm_param {
    use_global_stats: true
  }
}
layer {
  name: "scale2a_branch1"
  type: "Scale"
  bottom: "res2a_branch1"
  top: "res2a_branch1"
  scale_param {
    bias_term: true
  }
}
layer {
  name: "res2a_branch2a"
  type: "Convolution"
  bottom: "pool1"
  top: "res2a_branch2a"
  convolution_param {
    num_output: 64
    bias_term: false
    pad: 0
    kernel_size: 1
    stride: 1
  }
}
layer {
  name: "bn2a_branch2a"
  type: "BatchNorm"
  bottom: "res2a_branch2a"
  top: "res2a_branch2a"
  batch_norm_param {
    use_global_stats: true
  }
}
layer {
  name: "scale2a_branch2a"
  type: "Scale"
  bottom: "res2a_branch2a"
  top: "res2a_branch2a"
  scale_param {
    bias_term: true
  }
}
layer {
  name: "res2a_branch2a_relu"
  type: "ReLU"
  bottom: "res2a_branch2a"
  top: "res2a_branch2a"
}
layer {
  name: "res2a_branch2b"
  type: "Convolution"
  bottom: "res2a_branch2a"
  top: "res2a_branch2b"
  convolution_param {
    num_output: 64
    bias_term: false
    pad: 1
    kernel_size: 3
    stride: 1
  }
}
layer {
  name: "bn2a_branch2b"
  type: "BatchNorm"
  bottom: "res2a_branch2b"
  top: "res2a_branch2b"
  batch_norm_param {
    use_global_stats: true
  }
}
layer {
  name: "scale2a_branch2b"
  type: "Scale"
  bottom: "res2a_branch2b"
  top: "res2a_branch2b"
  scale_param {
    bias_term: true
  }
}
layer {
  name: "res2a_branch2b_relu"
  type: "ReLU"
  bottom: "res2a_branch2b"
  top: "res2a_branch2b"
}
layer {
  name: "res2a_branch2c"
  type: "Convolution"
  bottom: "res2a_branch2b"
  top: "res2a_branch2c"
  convolution_param {
    num_output: 256
    bias_term: false
    pad: 0
    kernel_size: 1
    stride: 1
  }
}
layer {
  name: "bn2a_branch2c"
  type: "BatchNorm"
  bottom: "res2a_branch2c"
  top: "res2a_branch2c"
  batch_norm_param {
    use_global_stats: true
  }
}
layer {
  name: "scale2a_branch2c"
  type: "Scale"
  bottom: "res2a_branch2c"
  top: "res2a_branch2c"
  scale_param {
    bias_term: true
  }
}
layer {
  name: "res2a"
  type: "Eltwise"
  bottom: "res2a_branch1"
  bottom: "res2a_branch2c"
  top: "res2a"
}
layer {
  name: "res2a_relu"
  type: "ReLU"
  bottom: "res2a"
  top: "res2a"
}
layer {
  name: "res2b_branch2a"
  type: "Convolution"
  bottom: "res2a"
  top: "res2b_branch2a"
  convolution_param {
    num_output: 64
    bias_term: false
    pad: 0
    kernel_size: 1
    stride: 1
  }
}
layer {
  name: "bn2b_branch2a"
  type: "BatchNorm"
  bottom: "res2b_branch2a"
  top: "res2b_branch2a"
  batch_norm_param {
    use_global_stats: true
  }
}
layer {
  name: "scale2b_branch2a"
  type: "Scale"
  bottom: "res2b_branch2a"
  top: "res2b_branch2a"
  scale_param {
    bias_term: true
  }
}
layer {
  name: "res2b_branch2a_relu"
  type: "ReLU"
  bottom: "res2b_branch2a"
  top: "res2b_branch2a"
}
layer {
  name: "res2b_branch2b"
  type: "Convolution"
  bottom: "res2b_branch2a"
  top: "res2b_branch2b"
  convolution_param {
    num_output: 64
    bias_term: false
    pad: 1
    kernel_size: 3
    stride: 1
  }
}
layer {
  name: "bn2b_branch2b"
  type: "BatchNorm"
  bottom: "res2b_branch2b"
  top: "res2b_branch2b"
  batch_norm_param {
    use_global_stats: true
  }
}
layer {
  name: "scale2b_branch2b"
  type: "Scale"
  bottom: "res2b_branch2b"
  top: "res2b_branch2b"
  scale_param {
    bias_term: true
  }
}
layer {
  name: "res2b_branch2b_relu"
  type: "ReLU"
  bottom: "res2b_branch2b"
  top: "res2b_branch2b"
}
layer {
  name: "res2b_branch2c"
  type: "Convolution"
  bottom: "res2b_branch2b"
  top: "res2b_branch2c"
  convolution_param {
    num_output: 256
    bias_term: false
    pad: 0
    kernel_size: 1
    stride: 1
  }
}
layer {
  name: "bn2b_branch2c"
  type: "BatchNorm"
  bottom: "res2b_branch2c"
  top: "res2b_branch2c"
  batch_norm_param {
    use_global_stats: true
  }
}
layer {
  name: "scale2b_branch2c"
  type: "Scale"
  bottom: "res2b_branch2c"
  top: "res2b_branch2c"
  scale_param {
    bias_term: true
  }
}
layer {
  name: "res2b"
  type: "Eltwise"
  bottom: "res2a"
  bottom: "res2b_branch2c"
  top: "res2b"
}
layer {
  name: "res2b_relu"
  type: "ReLU"
  bottom: "res2b"
  top: "res2b"
}
layer {
  name: "res2c_branch2a"
  type: "Convolution"
  bottom: "res2b"
  top: "res2c_branch2a"
  convolution_param {
    num_output: 64
    bias_term: false
    pad: 0
    kernel_size: 1
    stride: 1
  }
}
layer {
  name: "bn2c_branch2a"
  type: "BatchNorm"
  bottom: "res2c_branch2a"
  top: "res2c_branch2a"
  batch_norm_param {
    use_global_stats: true
  }
}
layer {
  name: "scale2c_branch2a"
  type: "Scale"
  bottom: "res2c_branch2a"
  top: "res2c_branch2a"
  scale_param {
    bias_term: true
  }
}
layer {
  name: "res2c_branch2a_relu"
  type: "ReLU"
  bottom: "res2c_branch2a"
  top: "res2c_branch2a"
}
layer {
  name: "res2c_branch2b"
  type: "Convolution"
  bottom: "res2c_branch2a"
  top: "res2c_branch2b"
  convolution_param {
    num_output: 64
    bias_term: false
    pad: 1
    kernel_size: 3
    stride: 1
  }
}
layer {
  name: "bn2c_branch2b"
  type: "BatchNorm"
  bottom: "res2c_branch2b"
  top: "res2c_branch2b"
  batch_norm_param {
    use_global_stats: true
  }
}
layer {
  name: "scale2c_branch2b"
  type: "Scale"
  bottom: "res2c_branch2b"
  top: "res2c_branch2b"
  scale_param {
    bias_term: true
  }
}
layer {
  name: "res2c_branch2b_relu"
  type: "ReLU"
  bottom: "res2c_branch2b"
  top: "res2c_branch2b"
}
layer {
  name: "res2c_branch2c"
  type: "Convolution"
  bottom: "res2c_branch2b"
  top: "res2c_branch2c"
  convolution_param {
    num_output: 256
    bias_term: false
    pad: 0
    kernel_size: 1
    stride: 1
  }
}
layer {
  name: "bn2c_branch2c"
  type: "BatchNorm"
  bottom: "res2c_branch2c"
  top: "res2c_branch2c"
  batch_norm_param {
    use_global_stats: true
  }
}
layer {
  name: "scale2c_branch2c"
  type: "Scale"
  bottom: "res2c_branch2c"
  top: "res2c_branch2c"
  scale_param {
    bias_term: true
  }
}
layer {
  name: "res2c"
  type: "Eltwise"
  bottom: "res2b"
  bottom: "res2c_branch2c"
  top: "res2c"
}
layer {
  name: "res2c_relu"
  type: "ReLU"
  bottom: "res2c"
  top: "res2c"
}
layer {
  name: "res3a_branch1"
  type: "Convolution"
  bottom: "res2c"
  top: "res3a_branch1"
  convolution_param {
    num_output: 512
    bias_term: false
    pad: 0
    kernel_size: 1
    stride: 2
  }
}
layer {
  name: "bn3a_branch1"
  type: "BatchNorm"
  bottom: "res3a_branch1"
  top: "res3a_branch1"
  batch_norm_param {
    use_global_stats: true
  }
}
layer {
  name: "scale3a_branch1"
  type: "Scale"
  bottom: "res3a_branch1"
  top: "res3a_branch1"
  scale_param {
    bias_term: true
  }
}
layer {
  name: "res3a_branch2a"
  type: "Convolution"
  bottom: "res2c"
  top: "res3a_branch2a"
  convolution_param {
    num_output: 128
    bias_term: false
    pad: 0
    kernel_size: 1
    stride: 2
  }
}
layer {
  name: "bn3a_branch2a"
  type: "BatchNorm"
  bottom: "res3a_branch2a"
  top: "res3a_branch2a"
  batch_norm_param {
    use_global_stats: true
  }
}
layer {
  name: "scale3a_branch2a"
  type: "Scale"
  bottom: "res3a_branch2a"
  top: "res3a_branch2a"
  scale_param {
    bias_term: true
  }
}
layer {
  name: "res3a_branch2a_relu"
  type: "ReLU"
  bottom: "res3a_branch2a"
  top: "res3a_branch2a"
}
layer {
  name: "res3a_branch2b"
  type: "Convolution"
  bottom: "res3a_branch2a"
  top: "res3a_branch2b"
  convolution_param {
    num_output: 128
    bias_term: false
    pad: 1
    kernel_size: 3
    stride: 1
  }
}
layer {
  name: "bn3a_branch2b"
  type: "BatchNorm"
  bottom: "res3a_branch2b"
  top: "res3a_branch2b"
  batch_norm_param {
    use_global_stats: true
  }
}
layer {
  name: "scale3a_branch2b"
  type: "Scale"
  bottom: "res3a_branch2b"
  top: "res3a_branch2b"
  scale_param {
    bias_term: true
  }
}
layer {
  name: "res3a_branch2b_relu"
  type: "ReLU"
  bottom: "res3a_branch2b"
  top: "res3a_branch2b"
}
layer {
  name: "res3a_branch2c"
  type: "Convolution"
  bottom: "res3a_branch2b"
  top: "res3a_branch2c"
  convolution_param {
    num_output: 512
    bias_term: false
    pad: 0
    kernel_size: 1
    stride: 1
  }
}
layer {
  name: "bn3a_branch2c"
  type: "BatchNorm"
  bottom: "res3a_branch2c"
  top: "res3a_branch2c"
  batch_norm_param {
    use_global_stats: true
  }
}
layer {
  name: "scale3a_branch2c"
  type: "Scale"
  bottom: "res3a_branch2c"
  top: "res3a_branch2c"
  scale_param {
    bias_term: true
  }
}
layer {
  name: "res3a"
  type: "Eltwise"
  bottom: "res3a_branch1"
  bottom: "res3a_branch2c"
  top: "res3a"
}
layer {
  name: "res3a_relu"
  type: "ReLU"
  bottom: "res3a"
  top: "res3a"
}
layer {
  name: "res3b_branch2a"
  type: "Convolution"
  bottom: "res3a"
  top: "res3b_branch2a"
  convolution_param {
    num_output: 128
    bias_term: false
    pad: 0
    kernel_size: 1
    stride: 1
  }
}
layer {
  name: "bn3b_branch2a"
  type: "BatchNorm"
  bottom: "res3b_branch2a"
  top: "res3b_branch2a"
  batch_norm_param {
    use_global_stats: true
  }
}
layer {
  name: "scale3b_branch2a"
  type: "Scale"
  bottom: "res3b_branch2a"
  top: "res3b_branch2a"
  scale_param {
    bias_term: true
  }
}
layer {
  name: "res3b_branch2a_relu"
  type: "ReLU"
  bottom: "res3b_branch2a"
  top: "res3b_branch2a"
}
layer {
  name: "res3b_branch2b"
  type: "Convolution"
  bottom: "res3b_branch2a"
  top: "res3b_branch2b"
  convolution_param {
    num_output: 128
    bias_term: false
    pad: 1
    kernel_size: 3
    stride: 1
  }
}
layer {
  name: "bn3b_branch2b"
  type: "BatchNorm"
  bottom: "res3b_branch2b"
  top: "res3b_branch2b"
  batch_norm_param {
    use_global_stats: true
  }
}
layer {
  name: "scale3b_branch2b"
  type: "Scale"
  bottom: "res3b_branch2b"
  top: "res3b_branch2b"
  scale_param {
    bias_term: true
  }
}
layer {
  name: "res3b_branch2b_relu"
  type: "ReLU"
  bottom: "res3b_branch2b"
  top: "res3b_branch2b"
}
layer {
  name: "res3b_branch2c"
  type: "Convolution"
  bottom: "res3b_branch2b"
  top: "res3b_branch2c"
  convolution_param {
    num_output: 512
    bias_term: false
    pad: 0
    kernel_size: 1
    stride: 1
  }
}
layer {
  name: "bn3b_branch2c"
  type: "BatchNorm"
  bottom: "res3b_branch2c"
  top: "res3b_branch2c"
  batch_norm_param {
    use_global_stats: true
  }
}
layer {
  name: "scale3b_branch2c"
  type: "Scale"
  bottom: "res3b_branch2c"
  top: "res3b_branch2c"
  scale_param {
    bias_term: true
  }
}
layer {
  name: "res3b"
  type: "Eltwise"
  bottom: "res3a"
  bottom: "res3b_branch2c"
  top: "res3b"
}
layer {
  name: "res3b_relu"
  type: "ReLU"
  bottom: "res3b"
  top: "res3b"
}
layer {
  name: "res3c_branch2a"
  type: "Convolution"
  bottom: "res3b"
  top: "res3c_branch2a"
  convolution_param {
    num_output: 128
    bias_term: false
    pad: 0
    kernel_size: 1
    stride: 1
  }
}
layer {
  name: "bn3c_branch2a"
  type: "BatchNorm"
  bottom: "res3c_branch2a"
  top: "res3c_branch2a"
  batch_norm_param {
    use_global_stats: true
  }
}
layer {
  name: "scale3c_branch2a"
  type: "Scale"
  bottom: "res3c_branch2a"
  top: "res3c_branch2a"
  scale_param {
    bias_term: true
  }
}
layer {
  name: "res3c_branch2a_relu"
  type: "ReLU"
  bottom: "res3c_branch2a"
  top: "res3c_branch2a"
}
layer {
  name: "res3c_branch2b"
  type: "Convolution"
  bottom: "res3c_branch2a"
  top: "res3c_branch2b"
  convolution_param {
    num_output: 128
    bias_term: false
    pad: 1
    kernel_size: 3
    stride: 1
  }
}
layer {
  name: "bn3c_branch2b"
  type: "BatchNorm"
  bottom: "res3c_branch2b"
  top: "res3c_branch2b"
  batch_norm_param {
    use_global_stats: true
  }
}
layer {
  name: "scale3c_branch2b"
  type: "Scale"
  bottom: "res3c_branch2b"
  top: "res3c_branch2b"
  scale_param {
    bias_term: true
  }
}
layer {
  name: "res3c_branch2b_relu"
  type: "ReLU"
  bottom: "res3c_branch2b"
  top: "res3c_branch2b"
}
layer {
  name: "res3c_branch2c"
  type: "Convolution"
  bottom: "res3c_branch2b"
  top: "res3c_branch2c"
  convolution_param {
    num_output: 512
    bias_term: false
    pad: 0
    kernel_size: 1
    stride: 1
  }
}
layer {
  name: "bn3c_branch2c"
  type: "BatchNorm"
  bottom: "res3c_branch2c"
  top: "res3c_branch2c"
  batch_norm_param {
    use_global_stats: true
  }
}
layer {
  name: "scale3c_branch2c"
  type: "Scale"
  bottom: "res3c_branch2c"
  top: "res3c_branch2c"
  scale_param {
    bias_term: true
  }
}
layer {
  name: "res3c"
  type: "Eltwise"
  bottom: "res3b"
  bottom: "res3c_branch2c"
  top: "res3c"
}
layer {
  name: "res3c_relu"
  type: "ReLU"
  bottom: "res3c"
  top: "res3c"
}
layer {
  name: "res3d_branch2a"
  type: "Convolution"
  bottom: "res3c"
  top: "res3d_branch2a"
  convolution_param {
    num_output: 128
    bias_term: false
    pad: 0
    kernel_size: 1
    stride: 1
  }
}
layer {
  name: "bn3d_branch2a"
  type: "BatchNorm"
  bottom: "res3d_branch2a"
  top: "res3d_branch2a"
  batch_norm_param {
    use_global_stats: true
  }
}
layer {
  name: "scale3d_branch2a"
  type: "Scale"
  bottom: "res3d_branch2a"
  top: "res3d_branch2a"
  scale_param {
    bias_term: true
  }
}
layer {
  name: "res3d_branch2a_relu"
  type: "ReLU"
  bottom: "res3d_branch2a"
  top: "res3d_branch2a"
}
layer {
  name: "res3d_branch2b"
  type: "Convolution"
  bottom: "res3d_branch2a"
  top: "res3d_branch2b"
  convolution_param {
    num_output: 128
    bias_term: false
    pad: 1
    kernel_size: 3
    stride: 1
  }
}
layer {
  name: "bn3d_branch2b"
  type: "BatchNorm"
  bottom: "res3d_branch2b"
  top: "res3d_branch2b"
  batch_norm_param {
    use_global_stats: true
  }
}
layer {
  name: "scale3d_branch2b"
  type: "Scale"
  bottom: "res3d_branch2b"
  top: "res3d_branch2b"
  scale_param {
    bias_term: true
  }
}
layer {
  name: "res3d_branch2b_relu"
  type: "ReLU"
  bottom: "res3d_branch2b"
  top: "res3d_branch2b"
}
layer {
  name: "res3d_branch2c"
  type: "Convolution"
  bottom: "res3d_branch2b"
  top: "res3d_branch2c"
  convolution_param {
    num_output: 512
    bias_term: false
    pad: 0
    kernel_size: 1
    stride: 1
  }
}
layer {
  name: "bn3d_branch2c"
  type: "BatchNorm"
  bottom: "res3d_branch2c"
  top: "res3d_branch2c"
  batch_norm_param {
    use_global_stats: true
  }
}
layer {
  name: "scale3d_branch2c"
  type: "Scale"
  bottom: "res3d_branch2c"
  top: "res3d_branch2c"
  scale_param {
    bias_term: true
  }
}
layer {
  name: "res3d"
  type: "Eltwise"
  bottom: "res3c"
  bottom: "res3d_branch2c"
  top: "res3d"
}
layer {
  name: "res3d_relu"
  type: "ReLU"
  bottom: "res3d"
  top: "res3d"
}
layer {
  name: "res4a_branch1"
  type: "Convolution"
  bottom: "res3d"
  top: "res4a_branch1"
  convolution_param {
    num_output: 1024
    bias_term: false
    pad: 0
    kernel_size: 1
    stride: 2
  }
}
layer {
  name: "bn4a_branch1"
  type: "BatchNorm"
  bottom: "res4a_branch1"
  top: "res4a_branch1"
  batch_norm_param {
    use_global_stats: true
  }
}
layer {
  name: "scale4a_branch1"
  type: "Scale"
  bottom: "res4a_branch1"
  top: "res4a_branch1"
  scale_param {
    bias_term: true
  }
}
layer {
  name: "res4a_branch2a"
  type: "Convolution"
  bottom: "res3d"
  top: "res4a_branch2a"
  convolution_param {
    num_output: 256
    bias_term: false
    pad: 0
    kernel_size: 1
    stride: 2
  }
}
layer {
  name: "bn4a_branch2a"
  type: "BatchNorm"
  bottom: "res4a_branch2a"
  top: "res4a_branch2a"
  batch_norm_param {
    use_global_stats: true
  }
}
layer {
  name: "scale4a_branch2a"
  type: "Scale"
  bottom: "res4a_branch2a"
  top: "res4a_branch2a"
  scale_param {
    bias_term: true
  }
}
layer {
  name: "res4a_branch2a_relu"
  type: "ReLU"
  bottom: "res4a_branch2a"
  top: "res4a_branch2a"
}
layer {
  name: "res4a_branch2b"
  type: "Convolution"
  bottom: "res4a_branch2a"
  top: "res4a_branch2b"
  convolution_param {
    num_output: 256
    bias_term: false
    pad: 1
    kernel_size: 3
    stride: 1
  }
}
layer {
  name: "bn4a_branch2b"
  type: "BatchNorm"
  bottom: "res4a_branch2b"
  top: "res4a_branch2b"
  batch_norm_param {
    use_global_stats: true
  }
}
layer {
  name: "scale4a_branch2b"
  type: "Scale"
  bottom: "res4a_branch2b"
  top: "res4a_branch2b"
  scale_param {
    bias_term: true
  }
}
layer {
  name: "res4a_branch2b_relu"
  type: "ReLU"
  bottom: "res4a_branch2b"
  top: "res4a_branch2b"
}
layer {
  name: "res4a_branch2c"
  type: "Convolution"
  bottom: "res4a_branch2b"
  top: "res4a_branch2c"
  convolution_param {
    num_output: 1024
    bias_term: false
    pad: 0
    kernel_size: 1
    stride: 1
  }
}
layer {
  name: "bn4a_branch2c"
  type: "BatchNorm"
  bottom: "res4a_branch2c"
  top: "res4a_branch2c"
  batch_norm_param {
    use_global_stats: true
  }
}
layer {
  name: "scale4a_branch2c"
  type: "Scale"
  bottom: "res4a_branch2c"
  top: "res4a_branch2c"
  scale_param {
    bias_term: true
  }
}
layer {
  name: "res4a"
  type: "Eltwise"
  bottom: "res4a_branch1"
  bottom: "res4a_branch2c"
  top: "res4a"
}
layer {
  name: "res4a_relu"
  type: "ReLU"
  bottom: "res4a"
  top: "res4a"
}
layer {
  name: "res4b_branch2a"
  type: "Convolution"
  bottom: "res4a"
  top: "res4b_branch2a"
  convolution_param {
    num_output: 256
    bias_term: false
    pad: 0
    kernel_size: 1
    stride: 1
  }
}
layer {
  name: "bn4b_branch2a"
  type: "BatchNorm"
  bottom: "res4b_branch2a"
  top: "res4b_branch2a"
  batch_norm_param {
    use_global_stats: true
  }
}
layer {
  name: "scale4b_branch2a"
  type: "Scale"
  bottom: "res4b_branch2a"
  top: "res4b_branch2a"
  scale_param {
    bias_term: true
  }
}
layer {
  name: "res4b_branch2a_relu"
  type: "ReLU"
  bottom: "res4b_branch2a"
  top: "res4b_branch2a"
}
layer {
  name: "res4b_branch2b"
  type: "Convolution"
  bottom: "res4b_branch2a"
  top: "res4b_branch2b"
  convolution_param {
    num_output: 256
    bias_term: false
    pad: 1
    kernel_size: 3
    stride: 1
  }
}
layer {
  name: "bn4b_branch2b"
  type: "BatchNorm"
  bottom: "res4b_branch2b"
  top: "res4b_branch2b"
  batch_norm_param {
    use_global_stats: true
  }
}
layer {
  name: "scale4b_branch2b"
  type: "Scale"
  bottom: "res4b_branch2b"
  top: "res4b_branch2b"
  scale_param {
    bias_term: true
  }
}
layer {
  name: "res4b_branch2b_relu"
  type: "ReLU"
  bottom: "res4b_branch2b"
  top: "res4b_branch2b"
}
layer {
  name: "res4b_branch2c"
  type: "Convolution"
  bottom: "res4b_branch2b"
  top: "res4b_branch2c"
  convolution_param {
    num_output: 1024
    bias_term: false
    pad: 0
    kernel_size: 1
    stride: 1
  }
}
layer {
  name: "bn4b_branch2c"
  type: "BatchNorm"
  bottom: "res4b_branch2c"
  top: "res4b_branch2c"
  batch_norm_param {
    use_global_stats: true
  }
}
layer {
  name: "scale4b_branch2c"
  type: "Scale"
  bottom: "res4b_branch2c"
  top: "res4b_branch2c"
  scale_param {
    bias_term: true
  }
}
layer {
  name: "res4b"
  type: "Eltwise"
  bottom: "res4a"
  bottom: "res4b_branch2c"
  top: "res4b"
}
layer {
  name: "res4b_relu"
  type: "ReLU"
  bottom: "res4b"
  top: "res4b"
}
layer {
  name: "res4c_branch2a"
  type: "Convolution"
  bottom: "res4b"
  top: "res4c_branch2a"
  convolution_param {
    num_output: 256
    bias_term: false
    pad: 0
    kernel_size: 1
    stride: 1
  }
}
layer {
  name: "bn4c_branch2a"
  type: "BatchNorm"
  bottom: "res4c_branch2a"
  top: "res4c_branch2a"
  batch_norm_param {
    use_global_stats: true
  }
}
layer {
  name: "scale4c_branch2a"
  type: "Scale"
  bottom: "res4c_branch2a"
  top: "res4c_branch2a"
  scale_param {
    bias_term: true
  }
}
layer {
  name: "res4c_branch2a_relu"
  type: "ReLU"
  bottom: "res4c_branch2a"
  top: "res4c_branch2a"
}
layer {
  name: "res4c_branch2b"
  type: "Convolution"
  bottom: "res4c_branch2a"
  top: "res4c_branch2b"
  convolution_param {
    num_output: 256
    bias_term: false
    pad: 1
    kernel_size: 3
    stride: 1
  }
}
layer {
  name: "bn4c_branch2b"
  type: "BatchNorm"
  bottom: "res4c_branch2b"
  top: "res4c_branch2b"
  batch_norm_param {
    use_global_stats: true
  }
}
layer {
  name: "scale4c_branch2b"
  type: "Scale"
  bottom: "res4c_branch2b"
  top: "res4c_branch2b"
  scale_param {
    bias_term: true
  }
}
layer {
  name: "res4c_branch2b_relu"
  type: "ReLU"
  bottom: "res4c_branch2b"
  top: "res4c_branch2b"
}
layer {
  name: "res4c_branch2c"
  type: "Convolution"
  bottom: "res4c_branch2b"
  top: "res4c_branch2c"
  convolution_param {
    num_output: 1024
    bias_term: false
    pad: 0
    kernel_size: 1
    stride: 1
  }
}
layer {
  name: "bn4c_branch2c"
  type: "BatchNorm"
  bottom: "res4c_branch2c"
  top: "res4c_branch2c"
  batch_norm_param {
    use_global_stats: true
  }
}
layer {
  name: "scale4c_branch2c"
  type: "Scale"
  bottom: "res4c_branch2c"
  top: "res4c_branch2c"
  scale_param {
    bias_term: true
  }
}
layer {
  name: "res4c"
  type: "Eltwise"
  bottom: "res4b"
  bottom: "res4c_branch2c"
  top: "res4c"
}
layer {
  name: "res4c_relu"
  type: "ReLU"
  bottom: "res4c"
  top: "res4c"
}
layer {
  name: "res4d_branch2a"
  type: "Convolution"
  bottom: "res4c"
  top: "res4d_branch2a"
  convolution_param {
    num_output: 256
    bias_term: false
    pad: 0
    kernel_size: 1
    stride: 1
  }
}
layer {
  name: "bn4d_branch2a"
  type: "BatchNorm"
  bottom: "res4d_branch2a"
  top: "res4d_branch2a"
  batch_norm_param {
    use_global_stats: true
  }
}
layer {
  name: "scale4d_branch2a"
  type: "Scale"
  bottom: "res4d_branch2a"
  top: "res4d_branch2a"
  scale_param {
    bias_term: true
  }
}
layer {
  name: "res4d_branch2a_relu"
  type: "ReLU"
  bottom: "res4d_branch2a"
  top: "res4d_branch2a"
}
layer {
  name: "res4d_branch2b"
  type: "Convolution"
  bottom: "res4d_branch2a"
  top: "res4d_branch2b"
  convolution_param {
    num_output: 256
    bias_term: false
    pad: 1
    kernel_size: 3
    stride: 1
  }
}
layer {
  name: "bn4d_branch2b"
  type: "BatchNorm"
  bottom: "res4d_branch2b"
  top: "res4d_branch2b"
  batch_norm_param {
    use_global_stats: true
  }
}
layer {
  name: "scale4d_branch2b"
  type: "Scale"
  bottom: "res4d_branch2b"
  top: "res4d_branch2b"
  scale_param {
    bias_term: true
  }
}
layer {
  name: "res4d_branch2b_relu"
  type: "ReLU"
  bottom: "res4d_branch2b"
  top: "res4d_branch2b"
}
layer {
  name: "res4d_branch2c"
  type: "Convolution"
  bottom: "res4d_branch2b"
  top: "res4d_branch2c"
  convolution_param {
    num_output: 1024
    bias_term: false
    pad: 0
    kernel_size: 1
    stride: 1
  }
}
layer {
  name: "bn4d_branch2c"
  type: "BatchNorm"
  bottom: "res4d_branch2c"
  top: "res4d_branch2c"
  batch_norm_param {
    use_global_stats: true
  }
}
layer {
  name: "scale4d_branch2c"
  type: "Scale"
  bottom: "res4d_branch2c"
  top: "res4d_branch2c"
  scale_param {
    bias_term: true
  }
}
layer {
  name: "res4d"
  type: "Eltwise"
  bottom: "res4c"
  bottom: "res4d_branch2c"
  top: "res4d"
}
layer {
  name: "res4d_relu"
  type: "ReLU"
  bottom: "res4d"
  top: "res4d"
}
layer {
  name: "res4e_branch2a"
  type: "Convolution"
  bottom: "res4d"
  top: "res4e_branch2a"
  convolution_param {
    num_output: 256
    bias_term: false
    pad: 0
    kernel_size: 1
    stride: 1
  }
}
layer {
  name: "bn4e_branch2a"
  type: "BatchNorm"
  bottom: "res4e_branch2a"
  top: "res4e_branch2a"
  batch_norm_param {
    use_global_stats: true
  }
}
layer {
  name: "scale4e_branch2a"
  type: "Scale"
  bottom: "res4e_branch2a"
  top: "res4e_branch2a"
  scale_param {
    bias_term: true
  }
}
layer {
  name: "res4e_branch2a_relu"
  type: "ReLU"
  bottom: "res4e_branch2a"
  top: "res4e_branch2a"
}
layer {
  name: "res4e_branch2b"
  type: "Convolution"
  bottom: "res4e_branch2a"
  top: "res4e_branch2b"
  convolution_param {
    num_output: 256
    bias_term: false
    pad: 1
    kernel_size: 3
    stride: 1
  }
}
layer {
  name: "bn4e_branch2b"
  type: "BatchNorm"
  bottom: "res4e_branch2b"
  top: "res4e_branch2b"
  batch_norm_param {
    use_global_stats: true
  }
}
layer {
  name: "scale4e_branch2b"
  type: "Scale"
  bottom: "res4e_branch2b"
  top: "res4e_branch2b"
  scale_param {
    bias_term: true
  }
}
layer {
  name: "res4e_branch2b_relu"
  type: "ReLU"
  bottom: "res4e_branch2b"
  top: "res4e_branch2b"
}
layer {
  name: "res4e_branch2c"
  type: "Convolution"
  bottom: "res4e_branch2b"
  top: "res4e_branch2c"
  convolution_param {
    num_output: 1024
    bias_term: false
    pad: 0
    kernel_size: 1
    stride: 1
  }
}
layer {
  name: "bn4e_branch2c"
  type: "BatchNorm"
  bottom: "res4e_branch2c"
  top: "res4e_branch2c"
  batch_norm_param {
    use_global_stats: true
  }
}
layer {
  name: "scale4e_branch2c"
  type: "Scale"
  bottom: "res4e_branch2c"
  top: "res4e_branch2c"
  scale_param {
    bias_term: true
  }
}
layer {
  name: "res4e"
  type: "Eltwise"
  bottom: "res4d"
  bottom: "res4e_branch2c"
  top: "res4e"
}
layer {
  name: "res4e_relu"
  type: "ReLU"
  bottom: "res4e"
  top: "res4e"
}
layer {
  name: "res4f_branch2a"
  type: "Convolution"
  bottom: "res4e"
  top: "res4f_branch2a"
  convolution_param {
    num_output: 256
    bias_term: false
    pad: 0
    kernel_size: 1
    stride: 1
  }
}
layer {
  name: "bn4f_branch2a"
  type: "BatchNorm"
  bottom: "res4f_branch2a"
  top: "res4f_branch2a"
  batch_norm_param {
    use_global_stats: true
  }
}
layer {
  name: "scale4f_branch2a"
  type: "Scale"
  bottom: "res4f_branch2a"
  top: "res4f_branch2a"
  scale_param {
    bias_term: true
  }
}
layer {
  name: "res4f_branch2a_relu"
  type: "ReLU"
  bottom: "res4f_branch2a"
  top: "res4f_branch2a"
}
layer {
  name: "res4f_branch2b"
  type: "Convolution"
  bottom: "res4f_branch2a"
  top: "res4f_branch2b"
  convolution_param {
    num_output: 256
    bias_term: false
    pad: 1
    kernel_size: 3
    stride: 1
  }
}
layer {
  name: "bn4f_branch2b"
  type: "BatchNorm"
  bottom: "res4f_branch2b"
  top: "res4f_branch2b"
  batch_norm_param {
    use_global_stats: true
  }
}
layer {
  name: "scale4f_branch2b"
  type: "Scale"
  bottom: "res4f_branch2b"
  top: "res4f_branch2b"
  scale_param {
    bias_term: true
  }
}
layer {
  name: "res4f_branch2b_relu"
  type: "ReLU"
  bottom: "res4f_branch2b"
  top: "res4f_branch2b"
}
layer {
  name: "res4f_branch2c"
  type: "Convolution"
  bottom: "res4f_branch2b"
  top: "res4f_branch2c"
  convolution_param {
    num_output: 1024
    bias_term: false
    pad: 0
    kernel_size: 1
    stride: 1
  }
}
layer {
  name: "bn4f_branch2c"
  type: "BatchNorm"
  bottom: "res4f_branch2c"
  top: "res4f_branch2c"
  batch_norm_param {
    use_global_stats: true
  }
}
layer {
  name: "scale4f_branch2c"
  type: "Scale"
  bottom: "res4f_branch2c"
  top: "res4f_branch2c"
  scale_param {
    bias_term: true
  }
}
layer {
  name: "res4f"
  type: "Eltwise"
  bottom: "res4e"
  bottom: "res4f_branch2c"
  top: "res4f"
}
layer {
  name: "res4f_relu"
  type: "ReLU"
  bottom: "res4f"
  top: "res4f"
}
layer {
  name: "res5a_branch1"
  type: "Convolution"
  bottom: "res4f"
  top: "res5a_branch1"
  convolution_param {
    num_output: 2048
    bias_term: false
    pad: 0
    kernel_size: 1
    stride: 2
  }
}
layer {
  name: "bn5a_branch1"
  type: "BatchNorm"
  bottom: "res5a_branch1"
  top: "res5a_branch1"
  batch_norm_param {
    use_global_stats: true
  }
}
layer {
  name: "scale5a_branch1"
  type: "Scale"
  bottom: "res5a_branch1"
  top: "res5a_branch1"
  scale_param {
    bias_term: true
  }
}
layer {
  name: "res5a_branch2a"
  type: "Convolution"
  bottom: "res4f"
  top: "res5a_branch2a"
  convolution_param {
    num_output: 512
    bias_term: false
    pad: 0
    kernel_size: 1
    stride: 2
  }
}
layer {
  name: "bn5a_branch2a"
  type: "BatchNorm"
  bottom: "res5a_branch2a"
  top: "res5a_branch2a"
  batch_norm_param {
    use_global_stats: true
  }
}
layer {
  name: "scale5a_branch2a"
  type: "Scale"
  bottom: "res5a_branch2a"
  top: "res5a_branch2a"
  scale_param {
    bias_term: true
  }
}
layer {
  name: "res5a_branch2a_relu"
  type: "ReLU"
  bottom: "res5a_branch2a"
  top: "res5a_branch2a"
}
layer {
  name: "res5a_branch2b"
  type: "Convolution"
  bottom: "res5a_branch2a"
  top: "res5a_branch2b"
  convolution_param {
    num_output: 512
    bias_term: false
    pad: 1
    kernel_size: 3
    stride: 1
  }
}
layer {
  name: "bn5a_branch2b"
  type: "BatchNorm"
  bottom: "res5a_branch2b"
  top: "res5a_branch2b"
  batch_norm_param {
    use_global_stats: true
  }
}
layer {
  name: "scale5a_branch2b"
  type: "Scale"
  bottom: "res5a_branch2b"
  top: "res5a_branch2b"
  scale_param {
    bias_term: true
  }
}
layer {
  name: "res5a_branch2b_relu"
  type: "ReLU"
  bottom: "res5a_branch2b"
  top: "res5a_branch2b"
}
layer {
  name: "res5a_branch2c"
  type: "Convolution"
  bottom: "res5a_branch2b"
  top: "res5a_branch2c"
  convolution_param {
    num_output: 2048
    bias_term: false
    pad: 0
    kernel_s
I1202 15:43:32.420405  3689 layer_factory.hpp:77] Creating layer data
I1202 15:43:32.420430  3689 net.cpp:100] Creating Layer data
I1202 15:43:32.420438  3689 net.cpp:408] data -> data
I1202 15:43:32.420455  3689 net.cpp:408] data -> label
I1202 15:43:32.420750  3689 image_data_layer.cpp:38] Opening file market_evaluation/dataset/train.txt
I1202 15:43:32.423197  3689 image_data_layer.cpp:53] Shuffling data
I1202 15:43:32.423678  3689 image_data_layer.cpp:58] A total of 11642 images.
I1202 15:43:32.432163  3689 image_data_layer.cpp:85] output data size: 16,3,224,224
I1202 15:43:32.442535  3689 net.cpp:150] Setting up data
I1202 15:43:32.442576  3689 net.cpp:157] Top shape: 16 3 224 224 (2408448)
I1202 15:43:32.442580  3689 net.cpp:157] Top shape: 16 (16)
I1202 15:43:32.442584  3689 net.cpp:165] Memory required for data: 9633856
I1202 15:43:32.442589  3689 layer_factory.hpp:77] Creating layer conv1
I1202 15:43:32.442620  3689 net.cpp:100] Creating Layer conv1
I1202 15:43:32.442637  3689 net.cpp:434] conv1 <- data
I1202 15:43:32.442646  3689 net.cpp:408] conv1 -> conv1
I1202 15:43:32.443137  3689 net.cpp:150] Setting up conv1
I1202 15:43:32.443146  3689 net.cpp:157] Top shape: 16 64 112 112 (12845056)
I1202 15:43:32.443159  3689 net.cpp:165] Memory required for data: 61014080
I1202 15:43:32.443169  3689 layer_factory.hpp:77] Creating layer bn_conv1
I1202 15:43:32.443181  3689 net.cpp:100] Creating Layer bn_conv1
I1202 15:43:32.443186  3689 net.cpp:434] bn_conv1 <- conv1
I1202 15:43:32.443200  3689 net.cpp:395] bn_conv1 -> conv1 (in-place)
I1202 15:43:32.443351  3689 net.cpp:150] Setting up bn_conv1
I1202 15:43:32.443356  3689 net.cpp:157] Top shape: 16 64 112 112 (12845056)
I1202 15:43:32.443367  3689 net.cpp:165] Memory required for data: 112394304
I1202 15:43:32.443375  3689 layer_factory.hpp:77] Creating layer scale_conv1
I1202 15:43:32.443382  3689 net.cpp:100] Creating Layer scale_conv1
I1202 15:43:32.443387  3689 net.cpp:434] scale_conv1 <- conv1
I1202 15:43:32.443392  3689 net.cpp:395] scale_conv1 -> conv1 (in-place)
I1202 15:43:32.443434  3689 layer_factory.hpp:77] Creating layer scale_conv1
I1202 15:43:32.443553  3689 net.cpp:150] Setting up scale_conv1
I1202 15:43:32.443572  3689 net.cpp:157] Top shape: 16 64 112 112 (12845056)
I1202 15:43:32.443584  3689 net.cpp:165] Memory required for data: 163774528
I1202 15:43:32.443603  3689 layer_factory.hpp:77] Creating layer conv1_relu
I1202 15:43:32.443610  3689 net.cpp:100] Creating Layer conv1_relu
I1202 15:43:32.443612  3689 net.cpp:434] conv1_relu <- conv1
I1202 15:43:32.443616  3689 net.cpp:395] conv1_relu -> conv1 (in-place)
I1202 15:43:32.443621  3689 net.cpp:150] Setting up conv1_relu
I1202 15:43:32.443625  3689 net.cpp:157] Top shape: 16 64 112 112 (12845056)
I1202 15:43:32.443627  3689 net.cpp:165] Memory required for data: 215154752
I1202 15:43:32.443629  3689 layer_factory.hpp:77] Creating layer pool1
I1202 15:43:32.443634  3689 net.cpp:100] Creating Layer pool1
I1202 15:43:32.443637  3689 net.cpp:434] pool1 <- conv1
I1202 15:43:32.443644  3689 net.cpp:408] pool1 -> pool1
I1202 15:43:32.443675  3689 net.cpp:150] Setting up pool1
I1202 15:43:32.443683  3689 net.cpp:157] Top shape: 16 64 56 56 (3211264)
I1202 15:43:32.443687  3689 net.cpp:165] Memory required for data: 227999808
I1202 15:43:32.443693  3689 layer_factory.hpp:77] Creating layer pool1_pool1_0_split
I1202 15:43:32.443699  3689 net.cpp:100] Creating Layer pool1_pool1_0_split
I1202 15:43:32.443702  3689 net.cpp:434] pool1_pool1_0_split <- pool1
I1202 15:43:32.443706  3689 net.cpp:408] pool1_pool1_0_split -> pool1_pool1_0_split_0
I1202 15:43:32.443711  3689 net.cpp:408] pool1_pool1_0_split -> pool1_pool1_0_split_1
I1202 15:43:32.443740  3689 net.cpp:150] Setting up pool1_pool1_0_split
I1202 15:43:32.443745  3689 net.cpp:157] Top shape: 16 64 56 56 (3211264)
I1202 15:43:32.443748  3689 net.cpp:157] Top shape: 16 64 56 56 (3211264)
I1202 15:43:32.443750  3689 net.cpp:165] Memory required for data: 253689920
I1202 15:43:32.443753  3689 layer_factory.hpp:77] Creating layer res2a_branch1
I1202 15:43:32.443758  3689 net.cpp:100] Creating Layer res2a_branch1
I1202 15:43:32.443770  3689 net.cpp:434] res2a_branch1 <- pool1_pool1_0_split_0
I1202 15:43:32.443774  3689 net.cpp:408] res2a_branch1 -> res2a_branch1
I1202 15:43:32.443910  3689 net.cpp:150] Setting up res2a_branch1
I1202 15:43:32.443917  3689 net.cpp:157] Top shape: 16 256 56 56 (12845056)
I1202 15:43:32.443922  3689 net.cpp:165] Memory required for data: 305070144
I1202 15:43:32.443928  3689 layer_factory.hpp:77] Creating layer bn2a_branch1
I1202 15:43:32.443936  3689 net.cpp:100] Creating Layer bn2a_branch1
I1202 15:43:32.443941  3689 net.cpp:434] bn2a_branch1 <- res2a_branch1
I1202 15:43:32.443948  3689 net.cpp:395] bn2a_branch1 -> res2a_branch1 (in-place)
I1202 15:43:32.445118  3689 net.cpp:150] Setting up bn2a_branch1
I1202 15:43:32.445128  3689 net.cpp:157] Top shape: 16 256 56 56 (12845056)
I1202 15:43:32.445132  3689 net.cpp:165] Memory required for data: 356450368
I1202 15:43:32.445144  3689 layer_factory.hpp:77] Creating layer scale2a_branch1
I1202 15:43:32.445153  3689 net.cpp:100] Creating Layer scale2a_branch1
I1202 15:43:32.445159  3689 net.cpp:434] scale2a_branch1 <- res2a_branch1
I1202 15:43:32.445166  3689 net.cpp:395] scale2a_branch1 -> res2a_branch1 (in-place)
I1202 15:43:32.445192  3689 layer_factory.hpp:77] Creating layer scale2a_branch1
I1202 15:43:32.445258  3689 net.cpp:150] Setting up scale2a_branch1
I1202 15:43:32.445263  3689 net.cpp:157] Top shape: 16 256 56 56 (12845056)
I1202 15:43:32.445266  3689 net.cpp:165] Memory required for data: 407830592
I1202 15:43:32.445271  3689 layer_factory.hpp:77] Creating layer res2a_branch2a
I1202 15:43:32.445277  3689 net.cpp:100] Creating Layer res2a_branch2a
I1202 15:43:32.445281  3689 net.cpp:434] res2a_branch2a <- pool1_pool1_0_split_1
I1202 15:43:32.445286  3689 net.cpp:408] res2a_branch2a -> res2a_branch2a
I1202 15:43:32.445382  3689 net.cpp:150] Setting up res2a_branch2a
I1202 15:43:32.445387  3689 net.cpp:157] Top shape: 16 64 56 56 (3211264)
I1202 15:43:32.445389  3689 net.cpp:165] Memory required for data: 420675648
I1202 15:43:32.445392  3689 layer_factory.hpp:77] Creating layer bn2a_branch2a
I1202 15:43:32.445397  3689 net.cpp:100] Creating Layer bn2a_branch2a
I1202 15:43:32.445400  3689 net.cpp:434] bn2a_branch2a <- res2a_branch2a
I1202 15:43:32.445405  3689 net.cpp:395] bn2a_branch2a -> res2a_branch2a (in-place)
I1202 15:43:32.445502  3689 net.cpp:150] Setting up bn2a_branch2a
I1202 15:43:32.445507  3689 net.cpp:157] Top shape: 16 64 56 56 (3211264)
I1202 15:43:32.445508  3689 net.cpp:165] Memory required for data: 433520704
I1202 15:43:32.445515  3689 layer_factory.hpp:77] Creating layer scale2a_branch2a
I1202 15:43:32.445520  3689 net.cpp:100] Creating Layer scale2a_branch2a
I1202 15:43:32.445523  3689 net.cpp:434] scale2a_branch2a <- res2a_branch2a
I1202 15:43:32.445528  3689 net.cpp:395] scale2a_branch2a -> res2a_branch2a (in-place)
I1202 15:43:32.445549  3689 layer_factory.hpp:77] Creating layer scale2a_branch2a
I1202 15:43:32.445638  3689 net.cpp:150] Setting up scale2a_branch2a
I1202 15:43:32.445646  3689 net.cpp:157] Top shape: 16 64 56 56 (3211264)
I1202 15:43:32.445648  3689 net.cpp:165] Memory required for data: 446365760
I1202 15:43:32.445653  3689 layer_factory.hpp:77] Creating layer res2a_branch2a_relu
I1202 15:43:32.445658  3689 net.cpp:100] Creating Layer res2a_branch2a_relu
I1202 15:43:32.445662  3689 net.cpp:434] res2a_branch2a_relu <- res2a_branch2a
I1202 15:43:32.445665  3689 net.cpp:395] res2a_branch2a_relu -> res2a_branch2a (in-place)
I1202 15:43:32.445670  3689 net.cpp:150] Setting up res2a_branch2a_relu
I1202 15:43:32.445675  3689 net.cpp:157] Top shape: 16 64 56 56 (3211264)
I1202 15:43:32.445678  3689 net.cpp:165] Memory required for data: 459210816
I1202 15:43:32.445680  3689 layer_factory.hpp:77] Creating layer res2a_branch2b
I1202 15:43:32.445686  3689 net.cpp:100] Creating Layer res2a_branch2b
I1202 15:43:32.445690  3689 net.cpp:434] res2a_branch2b <- res2a_branch2a
I1202 15:43:32.445693  3689 net.cpp:408] res2a_branch2b -> res2a_branch2b
I1202 15:43:32.446091  3689 net.cpp:150] Setting up res2a_branch2b
I1202 15:43:32.446100  3689 net.cpp:157] Top shape: 16 64 56 56 (3211264)
I1202 15:43:32.446105  3689 net.cpp:165] Memory required for data: 472055872
I1202 15:43:32.446108  3689 layer_factory.hpp:77] Creating layer bn2a_branch2b
I1202 15:43:32.446113  3689 net.cpp:100] Creating Layer bn2a_branch2b
I1202 15:43:32.446117  3689 net.cpp:434] bn2a_branch2b <- res2a_branch2b
I1202 15:43:32.446120  3689 net.cpp:395] bn2a_branch2b -> res2a_branch2b (in-place)
I1202 15:43:32.446234  3689 net.cpp:150] Setting up bn2a_branch2b
I1202 15:43:32.446240  3689 net.cpp:157] Top shape: 16 64 56 56 (3211264)
I1202 15:43:32.446244  3689 net.cpp:165] Memory required for data: 484900928
I1202 15:43:32.446249  3689 layer_factory.hpp:77] Creating layer scale2a_branch2b
I1202 15:43:32.446255  3689 net.cpp:100] Creating Layer scale2a_branch2b
I1202 15:43:32.446259  3689 net.cpp:434] scale2a_branch2b <- res2a_branch2b
I1202 15:43:32.446262  3689 net.cpp:395] scale2a_branch2b -> res2a_branch2b (in-place)
I1202 15:43:32.446290  3689 layer_factory.hpp:77] Creating layer scale2a_branch2b
I1202 15:43:32.446362  3689 net.cpp:150] Setting up scale2a_branch2b
I1202 15:43:32.446367  3689 net.cpp:157] Top shape: 16 64 56 56 (3211264)
I1202 15:43:32.446370  3689 net.cpp:165] Memory required for data: 497745984
I1202 15:43:32.446374  3689 layer_factory.hpp:77] Creating layer res2a_branch2b_relu
I1202 15:43:32.446379  3689 net.cpp:100] Creating Layer res2a_branch2b_relu
I1202 15:43:32.446382  3689 net.cpp:434] res2a_branch2b_relu <- res2a_branch2b
I1202 15:43:32.446386  3689 net.cpp:395] res2a_branch2b_relu -> res2a_branch2b (in-place)
I1202 15:43:32.446390  3689 net.cpp:150] Setting up res2a_branch2b_relu
I1202 15:43:32.446394  3689 net.cpp:157] Top shape: 16 64 56 56 (3211264)
I1202 15:43:32.446398  3689 net.cpp:165] Memory required for data: 510591040
I1202 15:43:32.446400  3689 layer_factory.hpp:77] Creating layer res2a_branch2c
I1202 15:43:32.446406  3689 net.cpp:100] Creating Layer res2a_branch2c
I1202 15:43:32.446409  3689 net.cpp:434] res2a_branch2c <- res2a_branch2b
I1202 15:43:32.446414  3689 net.cpp:408] res2a_branch2c -> res2a_branch2c
I1202 15:43:32.446526  3689 net.cpp:150] Setting up res2a_branch2c
I1202 15:43:32.446530  3689 net.cpp:157] Top shape: 16 256 56 56 (12845056)
I1202 15:43:32.446534  3689 net.cpp:165] Memory required for data: 561971264
I1202 15:43:32.446537  3689 layer_factory.hpp:77] Creating layer bn2a_branch2c
I1202 15:43:32.446542  3689 net.cpp:100] Creating Layer bn2a_branch2c
I1202 15:43:32.446545  3689 net.cpp:434] bn2a_branch2c <- res2a_branch2c
I1202 15:43:32.446548  3689 net.cpp:395] bn2a_branch2c -> res2a_branch2c (in-place)
I1202 15:43:32.446653  3689 net.cpp:150] Setting up bn2a_branch2c
I1202 15:43:32.446663  3689 net.cpp:157] Top shape: 16 256 56 56 (12845056)
I1202 15:43:32.446668  3689 net.cpp:165] Memory required for data: 613351488
I1202 15:43:32.446677  3689 layer_factory.hpp:77] Creating layer scale2a_branch2c
I1202 15:43:32.446686  3689 net.cpp:100] Creating Layer scale2a_branch2c
I1202 15:43:32.446692  3689 net.cpp:434] scale2a_branch2c <- res2a_branch2c
I1202 15:43:32.446697  3689 net.cpp:395] scale2a_branch2c -> res2a_branch2c (in-place)
I1202 15:43:32.446725  3689 layer_factory.hpp:77] Creating layer scale2a_branch2c
I1202 15:43:32.446792  3689 net.cpp:150] Setting up scale2a_branch2c
I1202 15:43:32.446797  3689 net.cpp:157] Top shape: 16 256 56 56 (12845056)
I1202 15:43:32.446800  3689 net.cpp:165] Memory required for data: 664731712
I1202 15:43:32.446805  3689 layer_factory.hpp:77] Creating layer res2a
I1202 15:43:32.446813  3689 net.cpp:100] Creating Layer res2a
I1202 15:43:32.446816  3689 net.cpp:434] res2a <- res2a_branch1
I1202 15:43:32.446820  3689 net.cpp:434] res2a <- res2a_branch2c
I1202 15:43:32.446825  3689 net.cpp:408] res2a -> res2a
I1202 15:43:32.446844  3689 net.cpp:150] Setting up res2a
I1202 15:43:32.446851  3689 net.cpp:157] Top shape: 16 256 56 56 (12845056)
I1202 15:43:32.446852  3689 net.cpp:165] Memory required for data: 716111936
I1202 15:43:32.446856  3689 layer_factory.hpp:77] Creating layer res2a_relu
I1202 15:43:32.446859  3689 net.cpp:100] Creating Layer res2a_relu
I1202 15:43:32.446862  3689 net.cpp:434] res2a_relu <- res2a
I1202 15:43:32.446868  3689 net.cpp:395] res2a_relu -> res2a (in-place)
I1202 15:43:32.446872  3689 net.cpp:150] Setting up res2a_relu
I1202 15:43:32.446877  3689 net.cpp:157] Top shape: 16 256 56 56 (12845056)
I1202 15:43:32.446878  3689 net.cpp:165] Memory required for data: 767492160
I1202 15:43:32.446880  3689 layer_factory.hpp:77] Creating layer res2a_res2a_relu_0_split
I1202 15:43:32.446884  3689 net.cpp:100] Creating Layer res2a_res2a_relu_0_split
I1202 15:43:32.446887  3689 net.cpp:434] res2a_res2a_relu_0_split <- res2a
I1202 15:43:32.446890  3689 net.cpp:408] res2a_res2a_relu_0_split -> res2a_res2a_relu_0_split_0
I1202 15:43:32.446894  3689 net.cpp:408] res2a_res2a_relu_0_split -> res2a_res2a_relu_0_split_1
I1202 15:43:32.446915  3689 net.cpp:150] Setting up res2a_res2a_relu_0_split
I1202 15:43:32.446920  3689 net.cpp:157] Top shape: 16 256 56 56 (12845056)
I1202 15:43:32.446923  3689 net.cpp:157] Top shape: 16 256 56 56 (12845056)
I1202 15:43:32.446925  3689 net.cpp:165] Memory required for data: 870252608
I1202 15:43:32.446928  3689 layer_factory.hpp:77] Creating layer res2b_branch2a
I1202 15:43:32.446933  3689 net.cpp:100] Creating Layer res2b_branch2a
I1202 15:43:32.446935  3689 net.cpp:434] res2b_branch2a <- res2a_res2a_relu_0_split_0
I1202 15:43:32.446939  3689 net.cpp:408] res2b_branch2a -> res2b_branch2a
I1202 15:43:32.447049  3689 net.cpp:150] Setting up res2b_branch2a
I1202 15:43:32.447055  3689 net.cpp:157] Top shape: 16 64 56 56 (3211264)
I1202 15:43:32.447057  3689 net.cpp:165] Memory required for data: 883097664
I1202 15:43:32.447062  3689 layer_factory.hpp:77] Creating layer bn2b_branch2a
I1202 15:43:32.447067  3689 net.cpp:100] Creating Layer bn2b_branch2a
I1202 15:43:32.447068  3689 net.cpp:434] bn2b_branch2a <- res2b_branch2a
I1202 15:43:32.447072  3689 net.cpp:395] bn2b_branch2a -> res2b_branch2a (in-place)
I1202 15:43:32.447185  3689 net.cpp:150] Setting up bn2b_branch2a
I1202 15:43:32.447190  3689 net.cpp:157] Top shape: 16 64 56 56 (3211264)
I1202 15:43:32.447193  3689 net.cpp:165] Memory required for data: 895942720
I1202 15:43:32.447202  3689 layer_factory.hpp:77] Creating layer scale2b_branch2a
I1202 15:43:32.447208  3689 net.cpp:100] Creating Layer scale2b_branch2a
I1202 15:43:32.447211  3689 net.cpp:434] scale2b_branch2a <- res2b_branch2a
I1202 15:43:32.447214  3689 net.cpp:395] scale2b_branch2a -> res2b_branch2a (in-place)
I1202 15:43:32.447239  3689 layer_factory.hpp:77] Creating layer scale2b_branch2a
I1202 15:43:32.447314  3689 net.cpp:150] Setting up scale2b_branch2a
I1202 15:43:32.447319  3689 net.cpp:157] Top shape: 16 64 56 56 (3211264)
I1202 15:43:32.447321  3689 net.cpp:165] Memory required for data: 908787776
I1202 15:43:32.447325  3689 layer_factory.hpp:77] Creating layer res2b_branch2a_relu
I1202 15:43:32.447329  3689 net.cpp:100] Creating Layer res2b_branch2a_relu
I1202 15:43:32.447334  3689 net.cpp:434] res2b_branch2a_relu <- res2b_branch2a
I1202 15:43:32.447337  3689 net.cpp:395] res2b_branch2a_relu -> res2b_branch2a (in-place)
I1202 15:43:32.447341  3689 net.cpp:150] Setting up res2b_branch2a_relu
I1202 15:43:32.447345  3689 net.cpp:157] Top shape: 16 64 56 56 (3211264)
I1202 15:43:32.447348  3689 net.cpp:165] Memory required for data: 921632832
I1202 15:43:32.447350  3689 layer_factory.hpp:77] Creating layer res2b_branch2b
I1202 15:43:32.447355  3689 net.cpp:100] Creating Layer res2b_branch2b
I1202 15:43:32.447357  3689 net.cpp:434] res2b_branch2b <- res2b_branch2a
I1202 15:43:32.447361  3689 net.cpp:408] res2b_branch2b -> res2b_branch2b
I1202 15:43:32.447479  3689 net.cpp:150] Setting up res2b_branch2b
I1202 15:43:32.447485  3689 net.cpp:157] Top shape: 16 64 56 56 (3211264)
I1202 15:43:32.447487  3689 net.cpp:165] Memory required for data: 934477888
I1202 15:43:32.447491  3689 layer_factory.hpp:77] Creating layer bn2b_branch2b
I1202 15:43:32.447495  3689 net.cpp:100] Creating Layer bn2b_branch2b
I1202 15:43:32.447497  3689 net.cpp:434] bn2b_branch2b <- res2b_branch2b
I1202 15:43:32.447500  3689 net.cpp:395] bn2b_branch2b -> res2b_branch2b (in-place)
I1202 15:43:32.447615  3689 net.cpp:150] Setting up bn2b_branch2b
I1202 15:43:32.447620  3689 net.cpp:157] Top shape: 16 64 56 56 (3211264)
I1202 15:43:32.447623  3689 net.cpp:165] Memory required for data: 947322944
I1202 15:43:32.447628  3689 layer_factory.hpp:77] Creating layer scale2b_branch2b
I1202 15:43:32.447633  3689 net.cpp:100] Creating Layer scale2b_branch2b
I1202 15:43:32.447636  3689 net.cpp:434] scale2b_branch2b <- res2b_branch2b
I1202 15:43:32.447640  3689 net.cpp:395] scale2b_branch2b -> res2b_branch2b (in-place)
I1202 15:43:32.447664  3689 layer_factory.hpp:77] Creating layer scale2b_branch2b
I1202 15:43:32.447736  3689 net.cpp:150] Setting up scale2b_branch2b
I1202 15:43:32.447741  3689 net.cpp:157] Top shape: 16 64 56 56 (3211264)
I1202 15:43:32.447742  3689 net.cpp:165] Memory required for data: 960168000
I1202 15:43:32.447746  3689 layer_factory.hpp:77] Creating layer res2b_branch2b_relu
I1202 15:43:32.447751  3689 net.cpp:100] Creating Layer res2b_branch2b_relu
I1202 15:43:32.447753  3689 net.cpp:434] res2b_branch2b_relu <- res2b_branch2b
I1202 15:43:32.447757  3689 net.cpp:395] res2b_branch2b_relu -> res2b_branch2b (in-place)
I1202 15:43:32.447762  3689 net.cpp:150] Setting up res2b_branch2b_relu
I1202 15:43:32.447764  3689 net.cpp:157] Top shape: 16 64 56 56 (3211264)
I1202 15:43:32.447767  3689 net.cpp:165] Memory required for data: 973013056
I1202 15:43:32.447769  3689 layer_factory.hpp:77] Creating layer res2b_branch2c
I1202 15:43:32.447777  3689 net.cpp:100] Creating Layer res2b_branch2c
I1202 15:43:32.447779  3689 net.cpp:434] res2b_branch2c <- res2b_branch2b
I1202 15:43:32.447783  3689 net.cpp:408] res2b_branch2c -> res2b_branch2c
I1202 15:43:32.447899  3689 net.cpp:150] Setting up res2b_branch2c
I1202 15:43:32.447906  3689 net.cpp:157] Top shape: 16 256 56 56 (12845056)
I1202 15:43:32.447907  3689 net.cpp:165] Memory required for data: 1024393280
I1202 15:43:32.447911  3689 layer_factory.hpp:77] Creating layer bn2b_branch2c
I1202 15:43:32.447916  3689 net.cpp:100] Creating Layer bn2b_branch2c
I1202 15:43:32.447917  3689 net.cpp:434] bn2b_branch2c <- res2b_branch2c
I1202 15:43:32.447921  3689 net.cpp:395] bn2b_branch2c -> res2b_branch2c (in-place)
I1202 15:43:32.448029  3689 net.cpp:150] Setting up bn2b_branch2c
I1202 15:43:32.448035  3689 net.cpp:157] Top shape: 16 256 56 56 (12845056)
I1202 15:43:32.448036  3689 net.cpp:165] Memory required for data: 1075773504
I1202 15:43:32.448041  3689 layer_factory.hpp:77] Creating layer scale2b_branch2c
I1202 15:43:32.448046  3689 net.cpp:100] Creating Layer scale2b_branch2c
I1202 15:43:32.448050  3689 net.cpp:434] scale2b_branch2c <- res2b_branch2c
I1202 15:43:32.448052  3689 net.cpp:395] scale2b_branch2c -> res2b_branch2c (in-place)
I1202 15:43:32.448076  3689 layer_factory.hpp:77] Creating layer scale2b_branch2c
I1202 15:43:32.448143  3689 net.cpp:150] Setting up scale2b_branch2c
I1202 15:43:32.448148  3689 net.cpp:157] Top shape: 16 256 56 56 (12845056)
I1202 15:43:32.448151  3689 net.cpp:165] Memory required for data: 1127153728
I1202 15:43:32.448155  3689 layer_factory.hpp:77] Creating layer res2b
I1202 15:43:32.448160  3689 net.cpp:100] Creating Layer res2b
I1202 15:43:32.448164  3689 net.cpp:434] res2b <- res2a_res2a_relu_0_split_1
I1202 15:43:32.448168  3689 net.cpp:434] res2b <- res2b_branch2c
I1202 15:43:32.448170  3689 net.cpp:408] res2b -> res2b
I1202 15:43:32.448186  3689 net.cpp:150] Setting up res2b
I1202 15:43:32.448191  3689 net.cpp:157] Top shape: 16 256 56 56 (12845056)
I1202 15:43:32.448194  3689 net.cpp:165] Memory required for data: 1178533952
I1202 15:43:32.448195  3689 layer_factory.hpp:77] Creating layer res2b_relu
I1202 15:43:32.448200  3689 net.cpp:100] Creating Layer res2b_relu
I1202 15:43:32.448204  3689 net.cpp:434] res2b_relu <- res2b
I1202 15:43:32.448206  3689 net.cpp:395] res2b_relu -> res2b (in-place)
I1202 15:43:32.448210  3689 net.cpp:150] Setting up res2b_relu
I1202 15:43:32.448213  3689 net.cpp:157] Top shape: 16 256 56 56 (12845056)
I1202 15:43:32.448215  3689 net.cpp:165] Memory required for data: 1229914176
I1202 15:43:32.448217  3689 layer_factory.hpp:77] Creating layer res2b_res2b_relu_0_split
I1202 15:43:32.448221  3689 net.cpp:100] Creating Layer res2b_res2b_relu_0_split
I1202 15:43:32.448223  3689 net.cpp:434] res2b_res2b_relu_0_split <- res2b
I1202 15:43:32.448227  3689 net.cpp:408] res2b_res2b_relu_0_split -> res2b_res2b_relu_0_split_0
I1202 15:43:32.448232  3689 net.cpp:408] res2b_res2b_relu_0_split -> res2b_res2b_relu_0_split_1
I1202 15:43:32.448251  3689 net.cpp:150] Setting up res2b_res2b_relu_0_split
I1202 15:43:32.448256  3689 net.cpp:157] Top shape: 16 256 56 56 (12845056)
I1202 15:43:32.448258  3689 net.cpp:157] Top shape: 16 256 56 56 (12845056)
I1202 15:43:32.448261  3689 net.cpp:165] Memory required for data: 1332674624
I1202 15:43:32.448262  3689 layer_factory.hpp:77] Creating layer res2c_branch2a
I1202 15:43:32.448268  3689 net.cpp:100] Creating Layer res2c_branch2a
I1202 15:43:32.448271  3689 net.cpp:434] res2c_branch2a <- res2b_res2b_relu_0_split_0
I1202 15:43:32.448274  3689 net.cpp:408] res2c_branch2a -> res2c_branch2a
I1202 15:43:32.448390  3689 net.cpp:150] Setting up res2c_branch2a
I1202 15:43:32.448395  3689 net.cpp:157] Top shape: 16 64 56 56 (3211264)
I1202 15:43:32.448397  3689 net.cpp:165] Memory required for data: 1345519680
I1202 15:43:32.448401  3689 layer_factory.hpp:77] Creating layer bn2c_branch2a
I1202 15:43:32.448405  3689 net.cpp:100] Creating Layer bn2c_branch2a
I1202 15:43:32.448407  3689 net.cpp:434] bn2c_branch2a <- res2c_branch2a
I1202 15:43:32.448410  3689 net.cpp:395] bn2c_branch2a -> res2c_branch2a (in-place)
I1202 15:43:32.448524  3689 net.cpp:150] Setting up bn2c_branch2a
I1202 15:43:32.448529  3689 net.cpp:157] Top shape: 16 64 56 56 (3211264)
I1202 15:43:32.448532  3689 net.cpp:165] Memory required for data: 1358364736
I1202 15:43:32.448537  3689 layer_factory.hpp:77] Creating layer scale2c_branch2a
I1202 15:43:32.448541  3689 net.cpp:100] Creating Layer scale2c_branch2a
I1202 15:43:32.448544  3689 net.cpp:434] scale2c_branch2a <- res2c_branch2a
I1202 15:43:32.448547  3689 net.cpp:395] scale2c_branch2a -> res2c_branch2a (in-place)
I1202 15:43:32.448571  3689 layer_factory.hpp:77] Creating layer scale2c_branch2a
I1202 15:43:32.448645  3689 net.cpp:150] Setting up scale2c_branch2a
I1202 15:43:32.448650  3689 net.cpp:157] Top shape: 16 64 56 56 (3211264)
I1202 15:43:32.448653  3689 net.cpp:165] Memory required for data: 1371209792
I1202 15:43:32.448657  3689 layer_factory.hpp:77] Creating layer res2c_branch2a_relu
I1202 15:43:32.448660  3689 net.cpp:100] Creating Layer res2c_branch2a_relu
I1202 15:43:32.448663  3689 net.cpp:434] res2c_branch2a_relu <- res2c_branch2a
I1202 15:43:32.448668  3689 net.cpp:395] res2c_branch2a_relu -> res2c_branch2a (in-place)
I1202 15:43:32.448671  3689 net.cpp:150] Setting up res2c_branch2a_relu
I1202 15:43:32.448674  3689 net.cpp:157] Top shape: 16 64 56 56 (3211264)
I1202 15:43:32.448678  3689 net.cpp:165] Memory required for data: 1384054848
I1202 15:43:32.448679  3689 layer_factory.hpp:77] Creating layer res2c_branch2b
I1202 15:43:32.448683  3689 net.cpp:100] Creating Layer res2c_branch2b
I1202 15:43:32.448688  3689 net.cpp:434] res2c_branch2b <- res2c_branch2a
I1202 15:43:32.448690  3689 net.cpp:408] res2c_branch2b -> res2c_branch2b
I1202 15:43:32.448812  3689 net.cpp:150] Setting up res2c_branch2b
I1202 15:43:32.448818  3689 net.cpp:157] Top shape: 16 64 56 56 (3211264)
I1202 15:43:32.448820  3689 net.cpp:165] Memory required for data: 1396899904
I1202 15:43:32.448824  3689 layer_factory.hpp:77] Creating layer bn2c_branch2b
I1202 15:43:32.448828  3689 net.cpp:100] Creating Layer bn2c_branch2b
I1202 15:43:32.448830  3689 net.cpp:434] bn2c_branch2b <- res2c_branch2b
I1202 15:43:32.448834  3689 net.cpp:395] bn2c_branch2b -> res2c_branch2b (in-place)
I1202 15:43:32.448946  3689 net.cpp:150] Setting up bn2c_branch2b
I1202 15:43:32.448951  3689 net.cpp:157] Top shape: 16 64 56 56 (3211264)
I1202 15:43:32.448954  3689 net.cpp:165] Memory required for data: 1409744960
I1202 15:43:32.448959  3689 layer_factory.hpp:77] Creating layer scale2c_branch2b
I1202 15:43:32.448963  3689 net.cpp:100] Creating Layer scale2c_branch2b
I1202 15:43:32.448966  3689 net.cpp:434] scale2c_branch2b <- res2c_branch2b
I1202 15:43:32.448969  3689 net.cpp:395] scale2c_branch2b -> res2c_branch2b (in-place)
I1202 15:43:32.448993  3689 layer_factory.hpp:77] Creating layer scale2c_branch2b
I1202 15:43:32.449064  3689 net.cpp:150] Setting up scale2c_branch2b
I1202 15:43:32.449069  3689 net.cpp:157] Top shape: 16 64 56 56 (3211264)
I1202 15:43:32.449072  3689 net.cpp:165] Memory required for data: 1422590016
I1202 15:43:32.449076  3689 layer_factory.hpp:77] Creating layer res2c_branch2b_relu
I1202 15:43:32.449080  3689 net.cpp:100] Creating Layer res2c_branch2b_relu
I1202 15:43:32.449084  3689 net.cpp:434] res2c_branch2b_relu <- res2c_branch2b
I1202 15:43:32.449087  3689 net.cpp:395] res2c_branch2b_relu -> res2c_branch2b (in-place)
I1202 15:43:32.449091  3689 net.cpp:150] Setting up res2c_branch2b_relu
I1202 15:43:32.449095  3689 net.cpp:157] Top shape: 16 64 56 56 (3211264)
I1202 15:43:32.449096  3689 net.cpp:165] Memory required for data: 1435435072
I1202 15:43:32.449098  3689 layer_factory.hpp:77] Creating layer res2c_branch2c
I1202 15:43:32.449105  3689 net.cpp:100] Creating Layer res2c_branch2c
I1202 15:43:32.449107  3689 net.cpp:434] res2c_branch2c <- res2c_branch2b
I1202 15:43:32.449111  3689 net.cpp:408] res2c_branch2c -> res2c_branch2c
I1202 15:43:32.449226  3689 net.cpp:150] Setting up res2c_branch2c
I1202 15:43:32.449232  3689 net.cpp:157] Top shape: 16 256 56 56 (12845056)
I1202 15:43:32.449234  3689 net.cpp:165] Memory required for data: 1486815296
I1202 15:43:32.449239  3689 layer_factory.hpp:77] Creating layer bn2c_branch2c
I1202 15:43:32.449242  3689 net.cpp:100] Creating Layer bn2c_branch2c
I1202 15:43:32.449244  3689 net.cpp:434] bn2c_branch2c <- res2c_branch2c
I1202 15:43:32.449247  3689 net.cpp:395] bn2c_branch2c -> res2c_branch2c (in-place)
I1202 15:43:32.449355  3689 net.cpp:150] Setting up bn2c_branch2c
I1202 15:43:32.449360  3689 net.cpp:157] Top shape: 16 256 56 56 (12845056)
I1202 15:43:32.449363  3689 net.cpp:165] Memory required for data: 1538195520
I1202 15:43:32.449374  3689 layer_factory.hpp:77] Creating layer scale2c_branch2c
I1202 15:43:32.449379  3689 net.cpp:100] Creating Layer scale2c_branch2c
I1202 15:43:32.449381  3689 net.cpp:434] scale2c_branch2c <- res2c_branch2c
I1202 15:43:32.449385  3689 net.cpp:395] scale2c_branch2c -> res2c_branch2c (in-place)
I1202 15:43:32.449410  3689 layer_factory.hpp:77] Creating layer scale2c_branch2c
I1202 15:43:32.449478  3689 net.cpp:150] Setting up scale2c_branch2c
I1202 15:43:32.449484  3689 net.cpp:157] Top shape: 16 256 56 56 (12845056)
I1202 15:43:32.449486  3689 net.cpp:165] Memory required for data: 1589575744
I1202 15:43:32.449491  3689 layer_factory.hpp:77] Creating layer res2c
I1202 15:43:32.449496  3689 net.cpp:100] Creating Layer res2c
I1202 15:43:32.449498  3689 net.cpp:434] res2c <- res2b_res2b_relu_0_split_1
I1202 15:43:32.449501  3689 net.cpp:434] res2c <- res2c_branch2c
I1202 15:43:32.449506  3689 net.cpp:408] res2c -> res2c
I1202 15:43:32.449518  3689 net.cpp:150] Setting up res2c
I1202 15:43:32.449522  3689 net.cpp:157] Top shape: 16 256 56 56 (12845056)
I1202 15:43:32.449525  3689 net.cpp:165] Memory required for data: 1640955968
I1202 15:43:32.449527  3689 layer_factory.hpp:77] Creating layer res2c_relu
I1202 15:43:32.449532  3689 net.cpp:100] Creating Layer res2c_relu
I1202 15:43:32.449534  3689 net.cpp:434] res2c_relu <- res2c
I1202 15:43:32.449538  3689 net.cpp:395] res2c_relu -> res2c (in-place)
I1202 15:43:32.449542  3689 net.cpp:150] Setting up res2c_relu
I1202 15:43:32.449545  3689 net.cpp:157] Top shape: 16 256 56 56 (12845056)
I1202 15:43:32.449548  3689 net.cpp:165] Memory required for data: 1692336192
I1202 15:43:32.449549  3689 layer_factory.hpp:77] Creating layer res2c_res2c_relu_0_split
I1202 15:43:32.449553  3689 net.cpp:100] Creating Layer res2c_res2c_relu_0_split
I1202 15:43:32.449555  3689 net.cpp:434] res2c_res2c_relu_0_split <- res2c
I1202 15:43:32.449558  3689 net.cpp:408] res2c_res2c_relu_0_split -> res2c_res2c_relu_0_split_0
I1202 15:43:32.449563  3689 net.cpp:408] res2c_res2c_relu_0_split -> res2c_res2c_relu_0_split_1
I1202 15:43:32.449582  3689 net.cpp:150] Setting up res2c_res2c_relu_0_split
I1202 15:43:32.449586  3689 net.cpp:157] Top shape: 16 256 56 56 (12845056)
I1202 15:43:32.449589  3689 net.cpp:157] Top shape: 16 256 56 56 (12845056)
I1202 15:43:32.449592  3689 net.cpp:165] Memory required for data: 1795096640
I1202 15:43:32.449594  3689 layer_factory.hpp:77] Creating layer res3a_branch1
I1202 15:43:32.449609  3689 net.cpp:100] Creating Layer res3a_branch1
I1202 15:43:32.449611  3689 net.cpp:434] res3a_branch1 <- res2c_res2c_relu_0_split_0
I1202 15:43:32.449616  3689 net.cpp:408] res3a_branch1 -> res3a_branch1
I1202 15:43:32.450060  3689 net.cpp:150] Setting up res3a_branch1
I1202 15:43:32.450069  3689 net.cpp:157] Top shape: 16 512 28 28 (6422528)
I1202 15:43:32.450073  3689 net.cpp:165] Memory required for data: 1820786752
I1202 15:43:32.450076  3689 layer_factory.hpp:77] Creating layer bn3a_branch1
I1202 15:43:32.450080  3689 net.cpp:100] Creating Layer bn3a_branch1
I1202 15:43:32.450083  3689 net.cpp:434] bn3a_branch1 <- res3a_branch1
I1202 15:43:32.450086  3689 net.cpp:395] bn3a_branch1 -> res3a_branch1 (in-place)
I1202 15:43:32.450469  3689 net.cpp:150] Setting up bn3a_branch1
I1202 15:43:32.450477  3689 net.cpp:157] Top shape: 16 512 28 28 (6422528)
I1202 15:43:32.450480  3689 net.cpp:165] Memory required for data: 1846476864
I1202 15:43:32.450485  3689 layer_factory.hpp:77] Creating layer scale3a_branch1
I1202 15:43:32.450490  3689 net.cpp:100] Creating Layer scale3a_branch1
I1202 15:43:32.450492  3689 net.cpp:434] scale3a_branch1 <- res3a_branch1
I1202 15:43:32.450497  3689 net.cpp:395] scale3a_branch1 -> res3a_branch1 (in-place)
I1202 15:43:32.450523  3689 layer_factory.hpp:77] Creating layer scale3a_branch1
I1202 15:43:32.450592  3689 net.cpp:150] Setting up scale3a_branch1
I1202 15:43:32.450597  3689 net.cpp:157] Top shape: 16 512 28 28 (6422528)
I1202 15:43:32.450599  3689 net.cpp:165] Memory required for data: 1872166976
I1202 15:43:32.450603  3689 layer_factory.hpp:77] Creating layer res3a_branch2a
I1202 15:43:32.450608  3689 net.cpp:100] Creating Layer res3a_branch2a
I1202 15:43:32.450613  3689 net.cpp:434] res3a_branch2a <- res2c_res2c_relu_0_split_1
I1202 15:43:32.450618  3689 net.cpp:408] res3a_branch2a -> res3a_branch2a
I1202 15:43:32.450743  3689 net.cpp:150] Setting up res3a_branch2a
I1202 15:43:32.450749  3689 net.cpp:157] Top shape: 16 128 28 28 (1605632)
I1202 15:43:32.450752  3689 net.cpp:165] Memory required for data: 1878589504
I1202 15:43:32.450755  3689 layer_factory.hpp:77] Creating layer bn3a_branch2a
I1202 15:43:32.450760  3689 net.cpp:100] Creating Layer bn3a_branch2a
I1202 15:43:32.450762  3689 net.cpp:434] bn3a_branch2a <- res3a_branch2a
I1202 15:43:32.450767  3689 net.cpp:395] bn3a_branch2a -> res3a_branch2a (in-place)
I1202 15:43:32.450871  3689 net.cpp:150] Setting up bn3a_branch2a
I1202 15:43:32.450876  3689 net.cpp:157] Top shape: 16 128 28 28 (1605632)
I1202 15:43:32.450880  3689 net.cpp:165] Memory required for data: 1885012032
I1202 15:43:32.450884  3689 layer_factory.hpp:77] Creating layer scale3a_branch2a
I1202 15:43:32.450889  3689 net.cpp:100] Creating Layer scale3a_branch2a
I1202 15:43:32.450891  3689 net.cpp:434] scale3a_branch2a <- res3a_branch2a
I1202 15:43:32.450896  3689 net.cpp:395] scale3a_branch2a -> res3a_branch2a (in-place)
I1202 15:43:32.450917  3689 layer_factory.hpp:77] Creating layer scale3a_branch2a
I1202 15:43:32.450984  3689 net.cpp:150] Setting up scale3a_branch2a
I1202 15:43:32.450989  3689 net.cpp:157] Top shape: 16 128 28 28 (1605632)
I1202 15:43:32.450991  3689 net.cpp:165] Memory required for data: 1891434560
I1202 15:43:32.450995  3689 layer_factory.hpp:77] Creating layer res3a_branch2a_relu
I1202 15:43:32.450999  3689 net.cpp:100] Creating Layer res3a_branch2a_relu
I1202 15:43:32.451002  3689 net.cpp:434] res3a_branch2a_relu <- res3a_branch2a
I1202 15:43:32.451006  3689 net.cpp:395] res3a_branch2a_relu -> res3a_branch2a (in-place)
I1202 15:43:32.451011  3689 net.cpp:150] Setting up res3a_branch2a_relu
I1202 15:43:32.451014  3689 net.cpp:157] Top shape: 16 128 28 28 (1605632)
I1202 15:43:32.451017  3689 net.cpp:165] Memory required for data: 1897857088
I1202 15:43:32.451020  3689 layer_factory.hpp:77] Creating layer res3a_branch2b
I1202 15:43:32.451025  3689 net.cpp:100] Creating Layer res3a_branch2b
I1202 15:43:32.451027  3689 net.cpp:434] res3a_branch2b <- res3a_branch2a
I1202 15:43:32.451031  3689 net.cpp:408] res3a_branch2b -> res3a_branch2b
I1202 15:43:32.451493  3689 net.cpp:150] Setting up res3a_branch2b
I1202 15:43:32.451501  3689 net.cpp:157] Top shape: 16 128 28 28 (1605632)
I1202 15:43:32.451504  3689 net.cpp:165] Memory required for data: 1904279616
I1202 15:43:32.451508  3689 layer_factory.hpp:77] Creating layer bn3a_branch2b
I1202 15:43:32.451514  3689 net.cpp:100] Creating Layer bn3a_branch2b
I1202 15:43:32.451517  3689 net.cpp:434] bn3a_branch2b <- res3a_branch2b
I1202 15:43:32.451520  3689 net.cpp:395] bn3a_branch2b -> res3a_branch2b (in-place)
I1202 15:43:32.451630  3689 net.cpp:150] Setting up bn3a_branch2b
I1202 15:43:32.451635  3689 net.cpp:157] Top shape: 16 128 28 28 (1605632)
I1202 15:43:32.451638  3689 net.cpp:165] Memory required for data: 1910702144
I1202 15:43:32.451643  3689 layer_factory.hpp:77] Creating layer scale3a_branch2b
I1202 15:43:32.451654  3689 net.cpp:100] Creating Layer scale3a_branch2b
I1202 15:43:32.451658  3689 net.cpp:434] scale3a_branch2b <- res3a_branch2b
I1202 15:43:32.451663  3689 net.cpp:395] scale3a_branch2b -> res3a_branch2b (in-place)
I1202 15:43:32.451686  3689 layer_factory.hpp:77] Creating layer scale3a_branch2b
I1202 15:43:32.451756  3689 net.cpp:150] Setting up scale3a_branch2b
I1202 15:43:32.451761  3689 net.cpp:157] Top shape: 16 128 28 28 (1605632)
I1202 15:43:32.451763  3689 net.cpp:165] Memory required for data: 1917124672
I1202 15:43:32.451767  3689 layer_factory.hpp:77] Creating layer res3a_branch2b_relu
I1202 15:43:32.451771  3689 net.cpp:100] Creating Layer res3a_branch2b_relu
I1202 15:43:32.451773  3689 net.cpp:434] res3a_branch2b_relu <- res3a_branch2b
I1202 15:43:32.451777  3689 net.cpp:395] res3a_branch2b_relu -> res3a_branch2b (in-place)
I1202 15:43:32.451781  3689 net.cpp:150] Setting up res3a_branch2b_relu
I1202 15:43:32.451786  3689 net.cpp:157] Top shape: 16 128 28 28 (1605632)
I1202 15:43:32.451787  3689 net.cpp:165] Memory required for data: 1923547200
I1202 15:43:32.451791  3689 layer_factory.hpp:77] Creating layer res3a_branch2c
I1202 15:43:32.451797  3689 net.cpp:100] Creating Layer res3a_branch2c
I1202 15:43:32.451798  3689 net.cpp:434] res3a_branch2c <- res3a_branch2b
I1202 15:43:32.451803  3689 net.cpp:408] res3a_branch2c -> res3a_branch2c
I1202 15:43:32.451951  3689 net.cpp:150] Setting up res3a_branch2c
I1202 15:43:32.451957  3689 net.cpp:157] Top shape: 16 512 28 28 (6422528)
I1202 15:43:32.451959  3689 net.cpp:165] Memory required for data: 1949237312
I1202 15:43:32.451963  3689 layer_factory.hpp:77] Creating layer bn3a_branch2c
I1202 15:43:32.451972  3689 net.cpp:100] Creating Layer bn3a_branch2c
I1202 15:43:32.451974  3689 net.cpp:434] bn3a_branch2c <- res3a_branch2c
I1202 15:43:32.451978  3689 net.cpp:395] bn3a_branch2c -> res3a_branch2c (in-place)
I1202 15:43:32.452088  3689 net.cpp:150] Setting up bn3a_branch2c
I1202 15:43:32.452093  3689 net.cpp:157] Top shape: 16 512 28 28 (6422528)
I1202 15:43:32.452096  3689 net.cpp:165] Memory required for data: 1974927424
I1202 15:43:32.452101  3689 layer_factory.hpp:77] Creating layer scale3a_branch2c
I1202 15:43:32.452106  3689 net.cpp:100] Creating Layer scale3a_branch2c
I1202 15:43:32.452110  3689 net.cpp:434] scale3a_branch2c <- res3a_branch2c
I1202 15:43:32.452113  3689 net.cpp:395] scale3a_branch2c -> res3a_branch2c (in-place)
I1202 15:43:32.452138  3689 layer_factory.hpp:77] Creating layer scale3a_branch2c
I1202 15:43:32.452203  3689 net.cpp:150] Setting up scale3a_branch2c
I1202 15:43:32.452209  3689 net.cpp:157] Top shape: 16 512 28 28 (6422528)
I1202 15:43:32.452211  3689 net.cpp:165] Memory required for data: 2000617536
I1202 15:43:32.452215  3689 layer_factory.hpp:77] Creating layer res3a
I1202 15:43:32.452220  3689 net.cpp:100] Creating Layer res3a
I1202 15:43:32.452224  3689 net.cpp:434] res3a <- res3a_branch1
I1202 15:43:32.452226  3689 net.cpp:434] res3a <- res3a_branch2c
I1202 15:43:32.452230  3689 net.cpp:408] res3a -> res3a
I1202 15:43:32.452244  3689 net.cpp:150] Setting up res3a
I1202 15:43:32.452250  3689 net.cpp:157] Top shape: 16 512 28 28 (6422528)
I1202 15:43:32.452251  3689 net.cpp:165] Memory required for data: 2026307648
I1202 15:43:32.452255  3689 layer_factory.hpp:77] Creating layer res3a_relu
I1202 15:43:32.452258  3689 net.cpp:100] Creating Layer res3a_relu
I1202 15:43:32.452261  3689 net.cpp:434] res3a_relu <- res3a
I1202 15:43:32.452265  3689 net.cpp:395] res3a_relu -> res3a (in-place)
I1202 15:43:32.452268  3689 net.cpp:150] Setting up res3a_relu
I1202 15:43:32.452271  3689 net.cpp:157] Top shape: 16 512 28 28 (6422528)
I1202 15:43:32.452273  3689 net.cpp:165] Memory required for data: 2051997760
I1202 15:43:32.452276  3689 layer_factory.hpp:77] Creating layer res3a_res3a_relu_0_split
I1202 15:43:32.452280  3689 net.cpp:100] Creating Layer res3a_res3a_relu_0_split
I1202 15:43:32.452281  3689 net.cpp:434] res3a_res3a_relu_0_split <- res3a
I1202 15:43:32.452286  3689 net.cpp:408] res3a_res3a_relu_0_split -> res3a_res3a_relu_0_split_0
I1202 15:43:32.452291  3689 net.cpp:408] res3a_res3a_relu_0_split -> res3a_res3a_relu_0_split_1
I1202 15:43:32.452311  3689 net.cpp:150] Setting up res3a_res3a_relu_0_split
I1202 15:43:32.452316  3689 net.cpp:157] Top shape: 16 512 28 28 (6422528)
I1202 15:43:32.452318  3689 net.cpp:157] Top shape: 16 512 28 28 (6422528)
I1202 15:43:32.452320  3689 net.cpp:165] Memory required for data: 2103377984
I1202 15:43:32.452322  3689 layer_factory.hpp:77] Creating layer res3b_branch2a
I1202 15:43:32.452328  3689 net.cpp:100] Creating Layer res3b_branch2a
I1202 15:43:32.452332  3689 net.cpp:434] res3b_branch2a <- res3a_res3a_relu_0_split_0
I1202 15:43:32.452337  3689 net.cpp:408] res3b_branch2a -> res3b_branch2a
I1202 15:43:32.452744  3689 net.cpp:150] Setting up res3b_branch2a
I1202 15:43:32.452754  3689 net.cpp:157] Top shape: 16 128 28 28 (1605632)
I1202 15:43:32.452759  3689 net.cpp:165] Memory required for data: 2109800512
I1202 15:43:32.452762  3689 layer_factory.hpp:77] Creating layer bn3b_branch2a
I1202 15:43:32.452766  3689 net.cpp:100] Creating Layer bn3b_branch2a
I1202 15:43:32.452770  3689 net.cpp:434] bn3b_branch2a <- res3b_branch2a
I1202 15:43:32.452775  3689 net.cpp:395] bn3b_branch2a -> res3b_branch2a (in-place)
I1202 15:43:32.452886  3689 net.cpp:150] Setting up bn3b_branch2a
I1202 15:43:32.452891  3689 net.cpp:157] Top shape: 16 128 28 28 (1605632)
I1202 15:43:32.452894  3689 net.cpp:165] Memory required for data: 2116223040
I1202 15:43:32.452899  3689 layer_factory.hpp:77] Creating layer scale3b_branch2a
I1202 15:43:32.452904  3689 net.cpp:100] Creating Layer scale3b_branch2a
I1202 15:43:32.452908  3689 net.cpp:434] scale3b_branch2a <- res3b_branch2a
I1202 15:43:32.452911  3689 net.cpp:395] scale3b_branch2a -> res3b_branch2a (in-place)
I1202 15:43:32.452935  3689 layer_factory.hpp:77] Creating layer scale3b_branch2a
I1202 15:43:32.453003  3689 net.cpp:150] Setting up scale3b_branch2a
I1202 15:43:32.453008  3689 net.cpp:157] Top shape: 16 128 28 28 (1605632)
I1202 15:43:32.453011  3689 net.cpp:165] Memory required for data: 2122645568
I1202 15:43:32.453016  3689 layer_factory.hpp:77] Creating layer res3b_branch2a_relu
I1202 15:43:32.453019  3689 net.cpp:100] Creating Layer res3b_branch2a_relu
I1202 15:43:32.453022  3689 net.cpp:434] res3b_branch2a_relu <- res3b_branch2a
I1202 15:43:32.453027  3689 net.cpp:395] res3b_branch2a_relu -> res3b_branch2a (in-place)
I1202 15:43:32.453032  3689 net.cpp:150] Setting up res3b_branch2a_relu
I1202 15:43:32.453035  3689 net.cpp:157] Top shape: 16 128 28 28 (1605632)
I1202 15:43:32.453037  3689 net.cpp:165] Memory required for data: 2129068096
I1202 15:43:32.453039  3689 layer_factory.hpp:77] Creating layer res3b_branch2b
I1202 15:43:32.453045  3689 net.cpp:100] Creating Layer res3b_branch2b
I1202 15:43:32.453048  3689 net.cpp:434] res3b_branch2b <- res3b_branch2a
I1202 15:43:32.453052  3689 net.cpp:408] res3b_branch2b -> res3b_branch2b
I1202 15:43:32.453495  3689 net.cpp:150] Setting up res3b_branch2b
I1202 15:43:32.453503  3689 net.cpp:157] Top shape: 16 128 28 28 (1605632)
I1202 15:43:32.453507  3689 net.cpp:165] Memory required for data: 2135490624
I1202 15:43:32.453510  3689 layer_factory.hpp:77] Creating layer bn3b_branch2b
I1202 15:43:32.453516  3689 net.cpp:100] Creating Layer bn3b_branch2b
I1202 15:43:32.453521  3689 net.cpp:434] bn3b_branch2b <- res3b_branch2b
I1202 15:43:32.453523  3689 net.cpp:395] bn3b_branch2b -> res3b_branch2b (in-place)
I1202 15:43:32.453649  3689 net.cpp:150] Setting up bn3b_branch2b
I1202 15:43:32.453655  3689 net.cpp:157] Top shape: 16 128 28 28 (1605632)
I1202 15:43:32.453658  3689 net.cpp:165] Memory required for data: 2141913152
I1202 15:43:32.453663  3689 layer_factory.hpp:77] Creating layer scale3b_branch2b
I1202 15:43:32.453670  3689 net.cpp:100] Creating Layer scale3b_branch2b
I1202 15:43:32.453673  3689 net.cpp:434] scale3b_branch2b <- res3b_branch2b
I1202 15:43:32.453677  3689 net.cpp:395] scale3b_branch2b -> res3b_branch2b (in-place)
I1202 15:43:32.453702  3689 layer_factory.hpp:77] Creating layer scale3b_branch2b
I1202 15:43:32.453770  3689 net.cpp:150] Setting up scale3b_branch2b
I1202 15:43:32.453775  3689 net.cpp:157] Top shape: 16 128 28 28 (1605632)
I1202 15:43:32.453778  3689 net.cpp:165] Memory required for data: 2148335680
I1202 15:43:32.453783  3689 layer_factory.hpp:77] Creating layer res3b_branch2b_relu
I1202 15:43:32.453786  3689 net.cpp:100] Creating Layer res3b_branch2b_relu
I1202 15:43:32.453788  3689 net.cpp:434] res3b_branch2b_relu <- res3b_branch2b
I1202 15:43:32.453793  3689 net.cpp:395] res3b_branch2b_relu -> res3b_branch2b (in-place)
I1202 15:43:32.453797  3689 net.cpp:150] Setting up res3b_branch2b_relu
I1202 15:43:32.453800  3689 net.cpp:157] Top shape: 16 128 28 28 (1605632)
I1202 15:43:32.453802  3689 net.cpp:165] Memory required for data: 2154758208
I1202 15:43:32.453804  3689 layer_factory.hpp:77] Creating layer res3b_branch2c
I1202 15:43:32.453810  3689 net.cpp:100] Creating Layer res3b_branch2c
I1202 15:43:32.453814  3689 net.cpp:434] res3b_branch2c <- res3b_branch2b
I1202 15:43:32.453819  3689 net.cpp:408] res3b_branch2c -> res3b_branch2c
I1202 15:43:32.453956  3689 net.cpp:150] Setting up res3b_branch2c
I1202 15:43:32.453963  3689 net.cpp:157] Top shape: 16 512 28 28 (6422528)
I1202 15:43:32.453965  3689 net.cpp:165] Memory required for data: 2180448320
I1202 15:43:32.453969  3689 layer_factory.hpp:77] Creating layer bn3b_branch2c
I1202 15:43:32.453972  3689 net.cpp:100] Creating Layer bn3b_branch2c
I1202 15:43:32.453975  3689 net.cpp:434] bn3b_branch2c <- res3b_branch2c
I1202 15:43:32.453979  3689 net.cpp:395] bn3b_branch2c -> res3b_branch2c (in-place)
I1202 15:43:32.454093  3689 net.cpp:150] Setting up bn3b_branch2c
I1202 15:43:32.454099  3689 net.cpp:157] Top shape: 16 512 28 28 (6422528)
I1202 15:43:32.454102  3689 net.cpp:165] Memory required for data: 2206138432
I1202 15:43:32.454107  3689 layer_factory.hpp:77] Creating layer scale3b_branch2c
I1202 15:43:32.454111  3689 net.cpp:100] Creating Layer scale3b_branch2c
I1202 15:43:32.454114  3689 net.cpp:434] scale3b_branch2c <- res3b_branch2c
I1202 15:43:32.454118  3689 net.cpp:395] scale3b_branch2c -> res3b_branch2c (in-place)
I1202 15:43:32.454144  3689 layer_factory.hpp:77] Creating layer scale3b_branch2c
I1202 15:43:32.454210  3689 net.cpp:150] Setting up scale3b_branch2c
I1202 15:43:32.454216  3689 net.cpp:157] Top shape: 16 512 28 28 (6422528)
I1202 15:43:32.454217  3689 net.cpp:165] Memory required for data: 2231828544
I1202 15:43:32.454221  3689 layer_factory.hpp:77] Creating layer res3b
I1202 15:43:32.454226  3689 net.cpp:100] Creating Layer res3b
I1202 15:43:32.454229  3689 net.cpp:434] res3b <- res3a_res3a_relu_0_split_1
I1202 15:43:32.454232  3689 net.cpp:434] res3b <- res3b_branch2c
I1202 15:43:32.454236  3689 net.cpp:408] res3b -> res3b
I1202 15:43:32.454251  3689 net.cpp:150] Setting up res3b
I1202 15:43:32.454255  3689 net.cpp:157] Top shape: 16 512 28 28 (6422528)
I1202 15:43:32.454257  3689 net.cpp:165] Memory required for data: 2257518656
I1202 15:43:32.454260  3689 layer_factory.hpp:77] Creating layer res3b_relu
I1202 15:43:32.454265  3689 net.cpp:100] Creating Layer res3b_relu
I1202 15:43:32.454270  3689 net.cpp:434] res3b_relu <- res3b
I1202 15:43:32.454274  3689 net.cpp:395] res3b_relu -> res3b (in-place)
I1202 15:43:32.454278  3689 net.cpp:150] Setting up res3b_relu
I1202 15:43:32.454282  3689 net.cpp:157] Top shape: 16 512 28 28 (6422528)
I1202 15:43:32.454283  3689 net.cpp:165] Memory required for data: 2283208768
I1202 15:43:32.454287  3689 layer_factory.hpp:77] Creating layer res3b_res3b_relu_0_split
I1202 15:43:32.454290  3689 net.cpp:100] Creating Layer res3b_res3b_relu_0_split
I1202 15:43:32.454293  3689 net.cpp:434] res3b_res3b_relu_0_split <- res3b
I1202 15:43:32.454299  3689 net.cpp:408] res3b_res3b_relu_0_split -> res3b_res3b_relu_0_split_0
I1202 15:43:32.454303  3689 net.cpp:408] res3b_res3b_relu_0_split -> res3b_res3b_relu_0_split_1
I1202 15:43:32.454325  3689 net.cpp:150] Setting up res3b_res3b_relu_0_split
I1202 15:43:32.454330  3689 net.cpp:157] Top shape: 16 512 28 28 (6422528)
I1202 15:43:32.454334  3689 net.cpp:157] Top shape: 16 512 28 28 (6422528)
I1202 15:43:32.454335  3689 net.cpp:165] Memory required for data: 2334588992
I1202 15:43:32.454339  3689 layer_factory.hpp:77] Creating layer res3c_branch2a
I1202 15:43:32.454345  3689 net.cpp:100] Creating Layer res3c_branch2a
I1202 15:43:32.454349  3689 net.cpp:434] res3c_branch2a <- res3b_res3b_relu_0_split_0
I1202 15:43:32.454352  3689 net.cpp:408] res3c_branch2a -> res3c_branch2a
I1202 15:43:32.454514  3689 net.cpp:150] Setting up res3c_branch2a
I1202 15:43:32.454520  3689 net.cpp:157] Top shape: 16 128 28 28 (1605632)
I1202 15:43:32.454522  3689 net.cpp:165] Memory required for data: 2341011520
I1202 15:43:32.454526  3689 layer_factory.hpp:77] Creating layer bn3c_branch2a
I1202 15:43:32.454530  3689 net.cpp:100] Creating Layer bn3c_branch2a
I1202 15:43:32.454533  3689 net.cpp:434] bn3c_branch2a <- res3c_branch2a
I1202 15:43:32.454536  3689 net.cpp:395] bn3c_branch2a -> res3c_branch2a (in-place)
I1202 15:43:32.454650  3689 net.cpp:150] Setting up bn3c_branch2a
I1202 15:43:32.454656  3689 net.cpp:157] Top shape: 16 128 28 28 (1605632)
I1202 15:43:32.454659  3689 net.cpp:165] Memory required for data: 2347434048
I1202 15:43:32.454665  3689 layer_factory.hpp:77] Creating layer scale3c_branch2a
I1202 15:43:32.454671  3689 net.cpp:100] Creating Layer scale3c_branch2a
I1202 15:43:32.454675  3689 net.cpp:434] scale3c_branch2a <- res3c_branch2a
I1202 15:43:32.454679  3689 net.cpp:395] scale3c_branch2a -> res3c_branch2a (in-place)
I1202 15:43:32.454704  3689 layer_factory.hpp:77] Creating layer scale3c_branch2a
I1202 15:43:32.454776  3689 net.cpp:150] Setting up scale3c_branch2a
I1202 15:43:32.454782  3689 net.cpp:157] Top shape: 16 128 28 28 (1605632)
I1202 15:43:32.454784  3689 net.cpp:165] Memory required for data: 2353856576
I1202 15:43:32.454789  3689 layer_factory.hpp:77] Creating layer res3c_branch2a_relu
I1202 15:43:32.454797  3689 net.cpp:100] Creating Layer res3c_branch2a_relu
I1202 15:43:32.454802  3689 net.cpp:434] res3c_branch2a_relu <- res3c_branch2a
I1202 15:43:32.454804  3689 net.cpp:395] res3c_branch2a_relu -> res3c_branch2a (in-place)
I1202 15:43:32.454809  3689 net.cpp:150] Setting up res3c_branch2a_relu
I1202 15:43:32.454814  3689 net.cpp:157] Top shape: 16 128 28 28 (1605632)
I1202 15:43:32.454818  3689 net.cpp:165] Memory required for data: 2360279104
I1202 15:43:32.454820  3689 layer_factory.hpp:77] Creating layer res3c_branch2b
I1202 15:43:32.454826  3689 net.cpp:100] Creating Layer res3c_branch2b
I1202 15:43:32.454828  3689 net.cpp:434] res3c_branch2b <- res3c_branch2a
I1202 15:43:32.454833  3689 net.cpp:408] res3c_branch2b -> res3c_branch2b
I1202 15:43:32.455422  3689 net.cpp:150] Setting up res3c_branch2b
I1202 15:43:32.455435  3689 net.cpp:157] Top shape: 16 128 28 28 (1605632)
I1202 15:43:32.455437  3689 net.cpp:165] Memory required for data: 2366701632
I1202 15:43:32.455441  3689 layer_factory.hpp:77] Creating layer bn3c_branch2b
I1202 15:43:32.455447  3689 net.cpp:100] Creating Layer bn3c_branch2b
I1202 15:43:32.455452  3689 net.cpp:434] bn3c_branch2b <- res3c_branch2b
I1202 15:43:32.455456  3689 net.cpp:395] bn3c_branch2b -> res3c_branch2b (in-place)
I1202 15:43:32.455577  3689 net.cpp:150] Setting up bn3c_branch2b
I1202 15:43:32.455584  3689 net.cpp:157] Top shape: 16 128 28 28 (1605632)
I1202 15:43:32.455586  3689 net.cpp:165] Memory required for data: 2373124160
I1202 15:43:32.455592  3689 layer_factory.hpp:77] Creating layer scale3c_branch2b
I1202 15:43:32.455600  3689 net.cpp:100] Creating Layer scale3c_branch2b
I1202 15:43:32.455603  3689 net.cpp:434] scale3c_branch2b <- res3c_branch2b
I1202 15:43:32.455606  3689 net.cpp:395] scale3c_branch2b -> res3c_branch2b (in-place)
I1202 15:43:32.455633  3689 layer_factory.hpp:77] Creating layer scale3c_branch2b
I1202 15:43:32.455705  3689 net.cpp:150] Setting up scale3c_branch2b
I1202 15:43:32.455710  3689 net.cpp:157] Top shape: 16 128 28 28 (1605632)
I1202 15:43:32.455713  3689 net.cpp:165] Memory required for data: 2379546688
I1202 15:43:32.455718  3689 layer_factory.hpp:77] Creating layer res3c_branch2b_relu
I1202 15:43:32.455724  3689 net.cpp:100] Creating Layer res3c_branch2b_relu
I1202 15:43:32.455727  3689 net.cpp:434] res3c_branch2b_relu <- res3c_branch2b
I1202 15:43:32.455731  3689 net.cpp:395] res3c_branch2b_relu -> res3c_branch2b (in-place)
I1202 15:43:32.455736  3689 net.cpp:150] Setting up res3c_branch2b_relu
I1202 15:43:32.455740  3689 net.cpp:157] Top shape: 16 128 28 28 (1605632)
I1202 15:43:32.455742  3689 net.cpp:165] Memory required for data: 2385969216
I1202 15:43:32.455744  3689 layer_factory.hpp:77] Creating layer res3c_branch2c
I1202 15:43:32.455752  3689 net.cpp:100] Creating Layer res3c_branch2c
I1202 15:43:32.455755  3689 net.cpp:434] res3c_branch2c <- res3c_branch2b
I1202 15:43:32.455760  3689 net.cpp:408] res3c_branch2c -> res3c_branch2c
I1202 15:43:32.455942  3689 net.cpp:150] Setting up res3c_branch2c
I1202 15:43:32.455948  3689 net.cpp:157] Top shape: 16 512 28 28 (6422528)
I1202 15:43:32.455952  3689 net.cpp:165] Memory required for data: 2411659328
I1202 15:43:32.455956  3689 layer_factory.hpp:77] Creating layer bn3c_branch2c
I1202 15:43:32.455961  3689 net.cpp:100] Creating Layer bn3c_branch2c
I1202 15:43:32.455965  3689 net.cpp:434] bn3c_branch2c <- res3c_branch2c
I1202 15:43:32.455968  3689 net.cpp:395] bn3c_branch2c -> res3c_branch2c (in-place)
I1202 15:43:32.456087  3689 net.cpp:150] Setting up bn3c_branch2c
I1202 15:43:32.456094  3689 net.cpp:157] Top shape: 16 512 28 28 (6422528)
I1202 15:43:32.456097  3689 net.cpp:165] Memory required for data: 2437349440
I1202 15:43:32.456104  3689 layer_factory.hpp:77] Creating layer scale3c_branch2c
I1202 15:43:32.456109  3689 net.cpp:100] Creating Layer scale3c_branch2c
I1202 15:43:32.456111  3689 net.cpp:434] scale3c_branch2c <- res3c_branch2c
I1202 15:43:32.456115  3689 net.cpp:395] scale3c_branch2c -> res3c_branch2c (in-place)
I1202 15:43:32.456148  3689 layer_factory.hpp:77] Creating layer scale3c_branch2c
I1202 15:43:32.456219  3689 net.cpp:150] Setting up scale3c_branch2c
I1202 15:43:32.456224  3689 net.cpp:157] Top shape: 16 512 28 28 (6422528)
I1202 15:43:32.456228  3689 net.cpp:165] Memory required for data: 2463039552
I1202 15:43:32.456233  3689 layer_factory.hpp:77] Creating layer res3c
I1202 15:43:32.456239  3689 net.cpp:100] Creating Layer res3c
I1202 15:43:32.456243  3689 net.cpp:434] res3c <- res3b_res3b_relu_0_split_1
I1202 15:43:32.456245  3689 net.cpp:434] res3c <- res3c_branch2c
I1202 15:43:32.456250  3689 net.cpp:408] res3c -> res3c
I1202 15:43:32.456267  3689 net.cpp:150] Setting up res3c
I1202 15:43:32.456272  3689 net.cpp:157] Top shape: 16 512 28 28 (6422528)
I1202 15:43:32.456274  3689 net.cpp:165] Memory required for data: 2488729664
I1202 15:43:32.456276  3689 layer_factory.hpp:77] Creating layer res3c_relu
I1202 15:43:32.456281  3689 net.cpp:100] Creating Layer res3c_relu
I1202 15:43:32.456284  3689 net.cpp:434] res3c_relu <- res3c
I1202 15:43:32.456287  3689 net.cpp:395] res3c_relu -> res3c (in-place)
I1202 15:43:32.456291  3689 net.cpp:150] Setting up res3c_relu
I1202 15:43:32.456295  3689 net.cpp:157] Top shape: 16 512 28 28 (6422528)
I1202 15:43:32.456297  3689 net.cpp:165] Memory required for data: 2514419776
I1202 15:43:32.456300  3689 layer_factory.hpp:77] Creating layer res3c_res3c_relu_0_split
I1202 15:43:32.456303  3689 net.cpp:100] Creating Layer res3c_res3c_relu_0_split
I1202 15:43:32.456307  3689 net.cpp:434] res3c_res3c_relu_0_split <- res3c
I1202 15:43:32.456310  3689 net.cpp:408] res3c_res3c_relu_0_split -> res3c_res3c_relu_0_split_0
I1202 15:43:32.456315  3689 net.cpp:408] res3c_res3c_relu_0_split -> res3c_res3c_relu_0_split_1
I1202 15:43:32.456337  3689 net.cpp:150] Setting up res3c_res3c_relu_0_split
I1202 15:43:32.456342  3689 net.cpp:157] Top shape: 16 512 28 28 (6422528)
I1202 15:43:32.456346  3689 net.cpp:157] Top shape: 16 512 28 28 (6422528)
I1202 15:43:32.456347  3689 net.cpp:165] Memory required for data: 2565800000
I1202 15:43:32.456351  3689 layer_factory.hpp:77] Creating layer res3d_branch2a
I1202 15:43:32.456356  3689 net.cpp:100] Creating Layer res3d_branch2a
I1202 15:43:32.456358  3689 net.cpp:434] res3d_branch2a <- res3c_res3c_relu_0_split_0
I1202 15:43:32.456363  3689 net.cpp:408] res3d_branch2a -> res3d_branch2a
I1202 15:43:32.456915  3689 net.cpp:150] Setting up res3d_branch2a
I1202 15:43:32.456928  3689 net.cpp:157] Top shape: 16 128 28 28 (1605632)
I1202 15:43:32.456931  3689 net.cpp:165] Memory required for data: 2572222528
I1202 15:43:32.456936  3689 layer_factory.hpp:77] Creating layer bn3d_branch2a
I1202 15:43:32.456943  3689 net.cpp:100] Creating Layer bn3d_branch2a
I1202 15:43:32.456945  3689 net.cpp:434] bn3d_branch2a <- res3d_branch2a
I1202 15:43:32.456950  3689 net.cpp:395] bn3d_branch2a -> res3d_branch2a (in-place)
I1202 15:43:32.457077  3689 net.cpp:150] Setting up bn3d_branch2a
I1202 15:43:32.457083  3689 net.cpp:157] Top shape: 16 128 28 28 (1605632)
I1202 15:43:32.457085  3689 net.cpp:165] Memory required for data: 2578645056
I1202 15:43:32.457109  3689 layer_factory.hpp:77] Creating layer scale3d_branch2a
I1202 15:43:32.457115  3689 net.cpp:100] Creating Layer scale3d_branch2a
I1202 15:43:32.457118  3689 net.cpp:434] scale3d_branch2a <- res3d_branch2a
I1202 15:43:32.457123  3689 net.cpp:395] scale3d_branch2a -> res3d_branch2a (in-place)
I1202 15:43:32.457154  3689 layer_factory.hpp:77] Creating layer scale3d_branch2a
I1202 15:43:32.457226  3689 net.cpp:150] Setting up scale3d_branch2a
I1202 15:43:32.457232  3689 net.cpp:157] Top shape: 16 128 28 28 (1605632)
I1202 15:43:32.457234  3689 net.cpp:165] Memory required for data: 2585067584
I1202 15:43:32.457239  3689 layer_factory.hpp:77] Creating layer res3d_branch2a_relu
I1202 15:43:32.457244  3689 net.cpp:100] Creating Layer res3d_branch2a_relu
I1202 15:43:32.457248  3689 net.cpp:434] res3d_branch2a_relu <- res3d_branch2a
I1202 15:43:32.457254  3689 net.cpp:395] res3d_branch2a_relu -> res3d_branch2a (in-place)
I1202 15:43:32.457262  3689 net.cpp:150] Setting up res3d_branch2a_relu
I1202 15:43:32.457267  3689 net.cpp:157] Top shape: 16 128 28 28 (1605632)
I1202 15:43:32.457268  3689 net.cpp:165] Memory required for data: 2591490112
I1202 15:43:32.457271  3689 layer_factory.hpp:77] Creating layer res3d_branch2b
I1202 15:43:32.457276  3689 net.cpp:100] Creating Layer res3d_branch2b
I1202 15:43:32.457278  3689 net.cpp:434] res3d_branch2b <- res3d_branch2a
I1202 15:43:32.457283  3689 net.cpp:408] res3d_branch2b -> res3d_branch2b
I1202 15:43:32.457844  3689 net.cpp:150] Setting up res3d_branch2b
I1202 15:43:32.457855  3689 net.cpp:157] Top shape: 16 128 28 28 (1605632)
I1202 15:43:32.457857  3689 net.cpp:165] Memory required for data: 2597912640
I1202 15:43:32.457861  3689 layer_factory.hpp:77] Creating layer bn3d_branch2b
I1202 15:43:32.457866  3689 net.cpp:100] Creating Layer bn3d_branch2b
I1202 15:43:32.457870  3689 net.cpp:434] bn3d_branch2b <- res3d_branch2b
I1202 15:43:32.457875  3689 net.cpp:395] bn3d_branch2b -> res3d_branch2b (in-place)
I1202 15:43:32.457988  3689 net.cpp:150] Setting up bn3d_branch2b
I1202 15:43:32.457994  3689 net.cpp:157] Top shape: 16 128 28 28 (1605632)
I1202 15:43:32.457996  3689 net.cpp:165] Memory required for data: 2604335168
I1202 15:43:32.458003  3689 layer_factory.hpp:77] Creating layer scale3d_branch2b
I1202 15:43:32.458008  3689 net.cpp:100] Creating Layer scale3d_branch2b
I1202 15:43:32.458009  3689 net.cpp:434] scale3d_branch2b <- res3d_branch2b
I1202 15:43:32.458012  3689 net.cpp:395] scale3d_branch2b -> res3d_branch2b (in-place)
I1202 15:43:32.458040  3689 layer_factory.hpp:77] Creating layer scale3d_branch2b
I1202 15:43:32.458104  3689 net.cpp:150] Setting up scale3d_branch2b
I1202 15:43:32.458108  3689 net.cpp:157] Top shape: 16 128 28 28 (1605632)
I1202 15:43:32.458111  3689 net.cpp:165] Memory required for data: 2610757696
I1202 15:43:32.458114  3689 layer_factory.hpp:77] Creating layer res3d_branch2b_relu
I1202 15:43:32.458119  3689 net.cpp:100] Creating Layer res3d_branch2b_relu
I1202 15:43:32.458122  3689 net.cpp:434] res3d_branch2b_relu <- res3d_branch2b
I1202 15:43:32.458124  3689 net.cpp:395] res3d_branch2b_relu -> res3d_branch2b (in-place)
I1202 15:43:32.458128  3689 net.cpp:150] Setting up res3d_branch2b_relu
I1202 15:43:32.458132  3689 net.cpp:157] Top shape: 16 128 28 28 (1605632)
I1202 15:43:32.458133  3689 net.cpp:165] Memory required for data: 2617180224
I1202 15:43:32.458135  3689 layer_factory.hpp:77] Creating layer res3d_branch2c
I1202 15:43:32.458142  3689 net.cpp:100] Creating Layer res3d_branch2c
I1202 15:43:32.458144  3689 net.cpp:434] res3d_branch2c <- res3d_branch2b
I1202 15:43:32.458148  3689 net.cpp:408] res3d_branch2c -> res3d_branch2c
I1202 15:43:32.458309  3689 net.cpp:150] Setting up res3d_branch2c
I1202 15:43:32.458314  3689 net.cpp:157] Top shape: 16 512 28 28 (6422528)
I1202 15:43:32.458317  3689 net.cpp:165] Memory required for data: 2642870336
I1202 15:43:32.458319  3689 layer_factory.hpp:77] Creating layer bn3d_branch2c
I1202 15:43:32.458323  3689 net.cpp:100] Creating Layer bn3d_branch2c
I1202 15:43:32.458326  3689 net.cpp:434] bn3d_branch2c <- res3d_branch2c
I1202 15:43:32.458329  3689 net.cpp:395] bn3d_branch2c -> res3d_branch2c (in-place)
I1202 15:43:32.458434  3689 net.cpp:150] Setting up bn3d_branch2c
I1202 15:43:32.458439  3689 net.cpp:157] Top shape: 16 512 28 28 (6422528)
I1202 15:43:32.458441  3689 net.cpp:165] Memory required for data: 2668560448
I1202 15:43:32.458446  3689 layer_factory.hpp:77] Creating layer scale3d_branch2c
I1202 15:43:32.458449  3689 net.cpp:100] Creating Layer scale3d_branch2c
I1202 15:43:32.458452  3689 net.cpp:434] scale3d_branch2c <- res3d_branch2c
I1202 15:43:32.458456  3689 net.cpp:395] scale3d_branch2c -> res3d_branch2c (in-place)
I1202 15:43:32.458479  3689 layer_factory.hpp:77] Creating layer scale3d_branch2c
I1202 15:43:32.458539  3689 net.cpp:150] Setting up scale3d_branch2c
I1202 15:43:32.458544  3689 net.cpp:157] Top shape: 16 512 28 28 (6422528)
I1202 15:43:32.458546  3689 net.cpp:165] Memory required for data: 2694250560
I1202 15:43:32.458550  3689 layer_factory.hpp:77] Creating layer res3d
I1202 15:43:32.458555  3689 net.cpp:100] Creating Layer res3d
I1202 15:43:32.458559  3689 net.cpp:434] res3d <- res3c_res3c_relu_0_split_1
I1202 15:43:32.458561  3689 net.cpp:434] res3d <- res3d_branch2c
I1202 15:43:32.458564  3689 net.cpp:408] res3d -> res3d
I1202 15:43:32.458580  3689 net.cpp:150] Setting up res3d
I1202 15:43:32.458583  3689 net.cpp:157] Top shape: 16 512 28 28 (6422528)
I1202 15:43:32.458585  3689 net.cpp:165] Memory required for data: 2719940672
I1202 15:43:32.458587  3689 layer_factory.hpp:77] Creating layer res3d_relu
I1202 15:43:32.458591  3689 net.cpp:100] Creating Layer res3d_relu
I1202 15:43:32.458595  3689 net.cpp:434] res3d_relu <- res3d
I1202 15:43:32.458597  3689 net.cpp:395] res3d_relu -> res3d (in-place)
I1202 15:43:32.458600  3689 net.cpp:150] Setting up res3d_relu
I1202 15:43:32.458603  3689 net.cpp:157] Top shape: 16 512 28 28 (6422528)
I1202 15:43:32.458606  3689 net.cpp:165] Memory required for data: 2745630784
I1202 15:43:32.458607  3689 layer_factory.hpp:77] Creating layer res3d_res3d_relu_0_split
I1202 15:43:32.458612  3689 net.cpp:100] Creating Layer res3d_res3d_relu_0_split
I1202 15:43:32.458614  3689 net.cpp:434] res3d_res3d_relu_0_split <- res3d
I1202 15:43:32.458617  3689 net.cpp:408] res3d_res3d_relu_0_split -> res3d_res3d_relu_0_split_0
I1202 15:43:32.458621  3689 net.cpp:408] res3d_res3d_relu_0_split -> res3d_res3d_relu_0_split_1
I1202 15:43:32.458640  3689 net.cpp:150] Setting up res3d_res3d_relu_0_split
I1202 15:43:32.458643  3689 net.cpp:157] Top shape: 16 512 28 28 (6422528)
I1202 15:43:32.458647  3689 net.cpp:157] Top shape: 16 512 28 28 (6422528)
I1202 15:43:32.458648  3689 net.cpp:165] Memory required for data: 2797011008
I1202 15:43:32.458650  3689 layer_factory.hpp:77] Creating layer res4a_branch1
I1202 15:43:32.458659  3689 net.cpp:100] Creating Layer res4a_branch1
I1202 15:43:32.458662  3689 net.cpp:434] res4a_branch1 <- res3d_res3d_relu_0_split_0
I1202 15:43:32.458665  3689 net.cpp:408] res4a_branch1 -> res4a_branch1
I1202 15:43:32.459527  3689 net.cpp:150] Setting up res4a_branch1
I1202 15:43:32.459535  3689 net.cpp:157] Top shape: 16 1024 14 14 (3211264)
I1202 15:43:32.459538  3689 net.cpp:165] Memory required for data: 2809856064
I1202 15:43:32.459542  3689 layer_factory.hpp:77] Creating layer bn4a_branch1
I1202 15:43:32.459547  3689 net.cpp:100] Creating Layer bn4a_branch1
I1202 15:43:32.459549  3689 net.cpp:434] bn4a_branch1 <- res4a_branch1
I1202 15:43:32.459553  3689 net.cpp:395] bn4a_branch1 -> res4a_branch1 (in-place)
I1202 15:43:32.459663  3689 net.cpp:150] Setting up bn4a_branch1
I1202 15:43:32.459667  3689 net.cpp:157] Top shape: 16 1024 14 14 (3211264)
I1202 15:43:32.459671  3689 net.cpp:165] Memory required for data: 2822701120
I1202 15:43:32.459674  3689 layer_factory.hpp:77] Creating layer scale4a_branch1
I1202 15:43:32.459679  3689 net.cpp:100] Creating Layer scale4a_branch1
I1202 15:43:32.459681  3689 net.cpp:434] scale4a_branch1 <- res4a_branch1
I1202 15:43:32.459684  3689 net.cpp:395] scale4a_branch1 -> res4a_branch1 (in-place)
I1202 15:43:32.459704  3689 layer_factory.hpp:77] Creating layer scale4a_branch1
I1202 15:43:32.459767  3689 net.cpp:150] Setting up scale4a_branch1
I1202 15:43:32.459772  3689 net.cpp:157] Top shape: 16 1024 14 14 (3211264)
I1202 15:43:32.459774  3689 net.cpp:165] Memory required for data: 2835546176
I1202 15:43:32.459777  3689 layer_factory.hpp:77] Creating layer res4a_branch2a
I1202 15:43:32.459784  3689 net.cpp:100] Creating Layer res4a_branch2a
I1202 15:43:32.459785  3689 net.cpp:434] res4a_branch2a <- res3d_res3d_relu_0_split_1
I1202 15:43:32.459789  3689 net.cpp:408] res4a_branch2a -> res4a_branch2a
I1202 15:43:32.459977  3689 net.cpp:150] Setting up res4a_branch2a
I1202 15:43:32.459981  3689 net.cpp:157] Top shape: 16 256 14 14 (802816)
I1202 15:43:32.459983  3689 net.cpp:165] Memory required for data: 2838757440
I1202 15:43:32.459987  3689 layer_factory.hpp:77] Creating layer bn4a_branch2a
I1202 15:43:32.459992  3689 net.cpp:100] Creating Layer bn4a_branch2a
I1202 15:43:32.459995  3689 net.cpp:434] bn4a_branch2a <- res4a_branch2a
I1202 15:43:32.459997  3689 net.cpp:395] bn4a_branch2a -> res4a_branch2a (in-place)
I1202 15:43:32.460104  3689 net.cpp:150] Setting up bn4a_branch2a
I1202 15:43:32.460108  3689 net.cpp:157] Top shape: 16 256 14 14 (802816)
I1202 15:43:32.460110  3689 net.cpp:165] Memory required for data: 2841968704
I1202 15:43:32.460114  3689 layer_factory.hpp:77] Creating layer scale4a_branch2a
I1202 15:43:32.460119  3689 net.cpp:100] Creating Layer scale4a_branch2a
I1202 15:43:32.460121  3689 net.cpp:434] scale4a_branch2a <- res4a_branch2a
I1202 15:43:32.460124  3689 net.cpp:395] scale4a_branch2a -> res4a_branch2a (in-place)
I1202 15:43:32.460146  3689 layer_factory.hpp:77] Creating layer scale4a_branch2a
I1202 15:43:32.460203  3689 net.cpp:150] Setting up scale4a_branch2a
I1202 15:43:32.460207  3689 net.cpp:157] Top shape: 16 256 14 14 (802816)
I1202 15:43:32.460209  3689 net.cpp:165] Memory required for data: 2845179968
I1202 15:43:32.460213  3689 layer_factory.hpp:77] Creating layer res4a_branch2a_relu
I1202 15:43:32.460217  3689 net.cpp:100] Creating Layer res4a_branch2a_relu
I1202 15:43:32.460219  3689 net.cpp:434] res4a_branch2a_relu <- res4a_branch2a
I1202 15:43:32.460223  3689 net.cpp:395] res4a_branch2a_relu -> res4a_branch2a (in-place)
I1202 15:43:32.460227  3689 net.cpp:150] Setting up res4a_branch2a_relu
I1202 15:43:32.460229  3689 net.cpp:157] Top shape: 16 256 14 14 (802816)
I1202 15:43:32.460232  3689 net.cpp:165] Memory required for data: 2848391232
I1202 15:43:32.460233  3689 layer_factory.hpp:77] Creating layer res4a_branch2b
I1202 15:43:32.460238  3689 net.cpp:100] Creating Layer res4a_branch2b
I1202 15:43:32.460242  3689 net.cpp:434] res4a_branch2b <- res4a_branch2a
I1202 15:43:32.460244  3689 net.cpp:408] res4a_branch2b -> res4a_branch2b
I1202 15:43:32.461097  3689 net.cpp:150] Setting up res4a_branch2b
I1202 15:43:32.461104  3689 net.cpp:157] Top shape: 16 256 14 14 (802816)
I1202 15:43:32.461107  3689 net.cpp:165] Memory required for data: 2851602496
I1202 15:43:32.461110  3689 layer_factory.hpp:77] Creating layer bn4a_branch2b
I1202 15:43:32.461117  3689 net.cpp:100] Creating Layer bn4a_branch2b
I1202 15:43:32.461118  3689 net.cpp:434] bn4a_branch2b <- res4a_branch2b
I1202 15:43:32.461122  3689 net.cpp:395] bn4a_branch2b -> res4a_branch2b (in-place)
I1202 15:43:32.461228  3689 net.cpp:150] Setting up bn4a_branch2b
I1202 15:43:32.461242  3689 net.cpp:157] Top shape: 16 256 14 14 (802816)
I1202 15:43:32.461244  3689 net.cpp:165] Memory required for data: 2854813760
I1202 15:43:32.461249  3689 layer_factory.hpp:77] Creating layer scale4a_branch2b
I1202 15:43:32.461253  3689 net.cpp:100] Creating Layer scale4a_branch2b
I1202 15:43:32.461256  3689 net.cpp:434] scale4a_branch2b <- res4a_branch2b
I1202 15:43:32.461259  3689 net.cpp:395] scale4a_branch2b -> res4a_branch2b (in-place)
I1202 15:43:32.461282  3689 layer_factory.hpp:77] Creating layer scale4a_branch2b
I1202 15:43:32.461355  3689 net.cpp:150] Setting up scale4a_branch2b
I1202 15:43:32.461361  3689 net.cpp:157] Top shape: 16 256 14 14 (802816)
I1202 15:43:32.461364  3689 net.cpp:165] Memory required for data: 2858025024
I1202 15:43:32.461367  3689 layer_factory.hpp:77] Creating layer res4a_branch2b_relu
I1202 15:43:32.461371  3689 net.cpp:100] Creating Layer res4a_branch2b_relu
I1202 15:43:32.461383  3689 net.cpp:434] res4a_branch2b_relu <- res4a_branch2b
I1202 15:43:32.461386  3689 net.cpp:395] res4a_branch2b_relu -> res4a_branch2b (in-place)
I1202 15:43:32.461390  3689 net.cpp:150] Setting up res4a_branch2b_relu
I1202 15:43:32.461392  3689 net.cpp:157] Top shape: 16 256 14 14 (802816)
I1202 15:43:32.461395  3689 net.cpp:165] Memory required for data: 2861236288
I1202 15:43:32.461396  3689 layer_factory.hpp:77] Creating layer res4a_branch2c
I1202 15:43:32.461402  3689 net.cpp:100] Creating Layer res4a_branch2c
I1202 15:43:32.461405  3689 net.cpp:434] res4a_branch2c <- res4a_branch2b
I1202 15:43:32.461408  3689 net.cpp:408] res4a_branch2c -> res4a_branch2c
I1202 15:43:32.461997  3689 net.cpp:150] Setting up res4a_branch2c
I1202 15:43:32.462007  3689 net.cpp:157] Top shape: 16 1024 14 14 (3211264)
I1202 15:43:32.462009  3689 net.cpp:165] Memory required for data: 2874081344
I1202 15:43:32.462013  3689 layer_factory.hpp:77] Creating layer bn4a_branch2c
I1202 15:43:32.462018  3689 net.cpp:100] Creating Layer bn4a_branch2c
I1202 15:43:32.462021  3689 net.cpp:434] bn4a_branch2c <- res4a_branch2c
I1202 15:43:32.462025  3689 net.cpp:395] bn4a_branch2c -> res4a_branch2c (in-place)
I1202 15:43:32.462142  3689 net.cpp:150] Setting up bn4a_branch2c
I1202 15:43:32.462147  3689 net.cpp:157] Top shape: 16 1024 14 14 (3211264)
I1202 15:43:32.462149  3689 net.cpp:165] Memory required for data: 2886926400
I1202 15:43:32.462154  3689 layer_factory.hpp:77] Creating layer scale4a_branch2c
I1202 15:43:32.462159  3689 net.cpp:100] Creating Layer scale4a_branch2c
I1202 15:43:32.462162  3689 net.cpp:434] scale4a_branch2c <- res4a_branch2c
I1202 15:43:32.462164  3689 net.cpp:395] scale4a_branch2c -> res4a_branch2c (in-place)
I1202 15:43:32.462190  3689 layer_factory.hpp:77] Creating layer scale4a_branch2c
I1202 15:43:32.462256  3689 net.cpp:150] Setting up scale4a_branch2c
I1202 15:43:32.462260  3689 net.cpp:157] Top shape: 16 1024 14 14 (3211264)
I1202 15:43:32.462262  3689 net.cpp:165] Memory required for data: 2899771456
I1202 15:43:32.462265  3689 layer_factory.hpp:77] Creating layer res4a
I1202 15:43:32.462270  3689 net.cpp:100] Creating Layer res4a
I1202 15:43:32.462273  3689 net.cpp:434] res4a <- res4a_branch1
I1202 15:43:32.462276  3689 net.cpp:434] res4a <- res4a_branch2c
I1202 15:43:32.462280  3689 net.cpp:408] res4a -> res4a
I1202 15:43:32.462293  3689 net.cpp:150] Setting up res4a
I1202 15:43:32.462297  3689 net.cpp:157] Top shape: 16 1024 14 14 (3211264)
I1202 15:43:32.462299  3689 net.cpp:165] Memory required for data: 2912616512
I1202 15:43:32.462301  3689 layer_factory.hpp:77] Creating layer res4a_relu
I1202 15:43:32.462306  3689 net.cpp:100] Creating Layer res4a_relu
I1202 15:43:32.462308  3689 net.cpp:434] res4a_relu <- res4a
I1202 15:43:32.462311  3689 net.cpp:395] res4a_relu -> res4a (in-place)
I1202 15:43:32.462316  3689 net.cpp:150] Setting up res4a_relu
I1202 15:43:32.462318  3689 net.cpp:157] Top shape: 16 1024 14 14 (3211264)
I1202 15:43:32.462321  3689 net.cpp:165] Memory required for data: 2925461568
I1202 15:43:32.462322  3689 layer_factory.hpp:77] Creating layer res4a_res4a_relu_0_split
I1202 15:43:32.462327  3689 net.cpp:100] Creating Layer res4a_res4a_relu_0_split
I1202 15:43:32.462328  3689 net.cpp:434] res4a_res4a_relu_0_split <- res4a
I1202 15:43:32.462332  3689 net.cpp:408] res4a_res4a_relu_0_split -> res4a_res4a_relu_0_split_0
I1202 15:43:32.462335  3689 net.cpp:408] res4a_res4a_relu_0_split -> res4a_res4a_relu_0_split_1
I1202 15:43:32.462355  3689 net.cpp:150] Setting up res4a_res4a_relu_0_split
I1202 15:43:32.462359  3689 net.cpp:157] Top shape: 16 1024 14 14 (3211264)
I1202 15:43:32.462363  3689 net.cpp:157] Top shape: 16 1024 14 14 (3211264)
I1202 15:43:32.462364  3689 net.cpp:165] Memory required for data: 2951151680
I1202 15:43:32.462366  3689 layer_factory.hpp:77] Creating layer res4b_branch2a
I1202 15:43:32.462380  3689 net.cpp:100] Creating Layer res4b_branch2a
I1202 15:43:32.462383  3689 net.cpp:434] res4b_branch2a <- res4a_res4a_relu_0_split_0
I1202 15:43:32.462388  3689 net.cpp:408] res4b_branch2a -> res4b_branch2a
I1202 15:43:32.462915  3689 net.cpp:150] Setting up res4b_branch2a
I1202 15:43:32.462924  3689 net.cpp:157] Top shape: 16 256 14 14 (802816)
I1202 15:43:32.462925  3689 net.cpp:165] Memory required for data: 2954362944
I1202 15:43:32.462929  3689 layer_factory.hpp:77] Creating layer bn4b_branch2a
I1202 15:43:32.462934  3689 net.cpp:100] Creating Layer bn4b_branch2a
I1202 15:43:32.462936  3689 net.cpp:434] bn4b_branch2a <- res4b_branch2a
I1202 15:43:32.462940  3689 net.cpp:395] bn4b_branch2a -> res4b_branch2a (in-place)
I1202 15:43:32.463052  3689 net.cpp:150] Setting up bn4b_branch2a
I1202 15:43:32.463057  3689 net.cpp:157] Top shape: 16 256 14 14 (802816)
I1202 15:43:32.463058  3689 net.cpp:165] Memory required for data: 2957574208
I1202 15:43:32.463063  3689 layer_factory.hpp:77] Creating layer scale4b_branch2a
I1202 15:43:32.463068  3689 net.cpp:100] Creating Layer scale4b_branch2a
I1202 15:43:32.463070  3689 net.cpp:434] scale4b_branch2a <- res4b_branch2a
I1202 15:43:32.463073  3689 net.cpp:395] scale4b_branch2a -> res4b_branch2a (in-place)
I1202 15:43:32.463099  3689 layer_factory.hpp:77] Creating layer scale4b_branch2a
I1202 15:43:32.463160  3689 net.cpp:150] Setting up scale4b_branch2a
I1202 15:43:32.463163  3689 net.cpp:157] Top shape: 16 256 14 14 (802816)
I1202 15:43:32.463165  3689 net.cpp:165] Memory required for data: 2960785472
I1202 15:43:32.463170  3689 layer_factory.hpp:77] Creating layer res4b_branch2a_relu
I1202 15:43:32.463173  3689 net.cpp:100] Creating Layer res4b_branch2a_relu
I1202 15:43:32.463176  3689 net.cpp:434] res4b_branch2a_relu <- res4b_branch2a
I1202 15:43:32.463179  3689 net.cpp:395] res4b_branch2a_relu -> res4b_branch2a (in-place)
I1202 15:43:32.463183  3689 net.cpp:150] Setting up res4b_branch2a_relu
I1202 15:43:32.463186  3689 net.cpp:157] Top shape: 16 256 14 14 (802816)
I1202 15:43:32.463188  3689 net.cpp:165] Memory required for data: 2963996736
I1202 15:43:32.463191  3689 layer_factory.hpp:77] Creating layer res4b_branch2b
I1202 15:43:32.463196  3689 net.cpp:100] Creating Layer res4b_branch2b
I1202 15:43:32.463197  3689 net.cpp:434] res4b_branch2b <- res4b_branch2a
I1202 15:43:32.463201  3689 net.cpp:408] res4b_branch2b -> res4b_branch2b
I1202 15:43:32.464074  3689 net.cpp:150] Setting up res4b_branch2b
I1202 15:43:32.464083  3689 net.cpp:157] Top shape: 16 256 14 14 (802816)
I1202 15:43:32.464087  3689 net.cpp:165] Memory required for data: 2967208000
I1202 15:43:32.464090  3689 layer_factory.hpp:77] Creating layer bn4b_branch2b
I1202 15:43:32.464097  3689 net.cpp:100] Creating Layer bn4b_branch2b
I1202 15:43:32.464099  3689 net.cpp:434] bn4b_branch2b <- res4b_branch2b
I1202 15:43:32.464102  3689 net.cpp:395] bn4b_branch2b -> res4b_branch2b (in-place)
I1202 15:43:32.464212  3689 net.cpp:150] Setting up bn4b_branch2b
I1202 15:43:32.464217  3689 net.cpp:157] Top shape: 16 256 14 14 (802816)
I1202 15:43:32.464220  3689 net.cpp:165] Memory required for data: 2970419264
I1202 15:43:32.464223  3689 layer_factory.hpp:77] Creating layer scale4b_branch2b
I1202 15:43:32.464228  3689 net.cpp:100] Creating Layer scale4b_branch2b
I1202 15:43:32.464231  3689 net.cpp:434] scale4b_branch2b <- res4b_branch2b
I1202 15:43:32.464234  3689 net.cpp:395] scale4b_branch2b -> res4b_branch2b (in-place)
I1202 15:43:32.464260  3689 layer_factory.hpp:77] Creating layer scale4b_branch2b
I1202 15:43:32.464321  3689 net.cpp:150] Setting up scale4b_branch2b
I1202 15:43:32.464325  3689 net.cpp:157] Top shape: 16 256 14 14 (802816)
I1202 15:43:32.464328  3689 net.cpp:165] Memory required for data: 2973630528
I1202 15:43:32.464331  3689 layer_factory.hpp:77] Creating layer res4b_branch2b_relu
I1202 15:43:32.464335  3689 net.cpp:100] Creating Layer res4b_branch2b_relu
I1202 15:43:32.464337  3689 net.cpp:434] res4b_branch2b_relu <- res4b_branch2b
I1202 15:43:32.464341  3689 net.cpp:395] res4b_branch2b_relu -> res4b_branch2b (in-place)
I1202 15:43:32.464345  3689 net.cpp:150] Setting up res4b_branch2b_relu
I1202 15:43:32.464347  3689 net.cpp:157] Top shape: 16 256 14 14 (802816)
I1202 15:43:32.464349  3689 net.cpp:165] Memory required for data: 2976841792
I1202 15:43:32.464352  3689 layer_factory.hpp:77] Creating layer res4b_branch2c
I1202 15:43:32.464357  3689 net.cpp:100] Creating Layer res4b_branch2c
I1202 15:43:32.464360  3689 net.cpp:434] res4b_branch2c <- res4b_branch2b
I1202 15:43:32.464364  3689 net.cpp:408] res4b_branch2c -> res4b_branch2c
I1202 15:43:32.464871  3689 net.cpp:150] Setting up res4b_branch2c
I1202 15:43:32.464879  3689 net.cpp:157] Top shape: 16 1024 14 14 (3211264)
I1202 15:43:32.464881  3689 net.cpp:165] Memory required for data: 2989686848
I1202 15:43:32.464884  3689 layer_factory.hpp:77] Creating layer bn4b_branch2c
I1202 15:43:32.464890  3689 net.cpp:100] Creating Layer bn4b_branch2c
I1202 15:43:32.464892  3689 net.cpp:434] bn4b_branch2c <- res4b_branch2c
I1202 15:43:32.464895  3689 net.cpp:395] bn4b_branch2c -> res4b_branch2c (in-place)
I1202 15:43:32.465013  3689 net.cpp:150] Setting up bn4b_branch2c
I1202 15:43:32.465016  3689 net.cpp:157] Top shape: 16 1024 14 14 (3211264)
I1202 15:43:32.465018  3689 net.cpp:165] Memory required for data: 3002531904
I1202 15:43:32.465023  3689 layer_factory.hpp:77] Creating layer scale4b_branch2c
I1202 15:43:32.465028  3689 net.cpp:100] Creating Layer scale4b_branch2c
I1202 15:43:32.465029  3689 net.cpp:434] scale4b_branch2c <- res4b_branch2c
I1202 15:43:32.465034  3689 net.cpp:395] scale4b_branch2c -> res4b_branch2c (in-place)
I1202 15:43:32.465056  3689 layer_factory.hpp:77] Creating layer scale4b_branch2c
I1202 15:43:32.465121  3689 net.cpp:150] Setting up scale4b_branch2c
I1202 15:43:32.465126  3689 net.cpp:157] Top shape: 16 1024 14 14 (3211264)
I1202 15:43:32.465127  3689 net.cpp:165] Memory required for data: 3015376960
I1202 15:43:32.465131  3689 layer_factory.hpp:77] Creating layer res4b
I1202 15:43:32.465136  3689 net.cpp:100] Creating Layer res4b
I1202 15:43:32.465138  3689 net.cpp:434] res4b <- res4a_res4a_relu_0_split_1
I1202 15:43:32.465142  3689 net.cpp:434] res4b <- res4b_branch2c
I1202 15:43:32.465144  3689 net.cpp:408] res4b -> res4b
I1202 15:43:32.465159  3689 net.cpp:150] Setting up res4b
I1202 15:43:32.465162  3689 net.cpp:157] Top shape: 16 1024 14 14 (3211264)
I1202 15:43:32.465164  3689 net.cpp:165] Memory required for data: 3028222016
I1202 15:43:32.465167  3689 layer_factory.hpp:77] Creating layer res4b_relu
I1202 15:43:32.465171  3689 net.cpp:100] Creating Layer res4b_relu
I1202 15:43:32.465173  3689 net.cpp:434] res4b_relu <- res4b
I1202 15:43:32.465176  3689 net.cpp:395] res4b_relu -> res4b (in-place)
I1202 15:43:32.465179  3689 net.cpp:150] Setting up res4b_relu
I1202 15:43:32.465183  3689 net.cpp:157] Top shape: 16 1024 14 14 (3211264)
I1202 15:43:32.465184  3689 net.cpp:165] Memory required for data: 3041067072
I1202 15:43:32.465186  3689 layer_factory.hpp:77] Creating layer res4b_res4b_relu_0_split
I1202 15:43:32.465190  3689 net.cpp:100] Creating Layer res4b_res4b_relu_0_split
I1202 15:43:32.465193  3689 net.cpp:434] res4b_res4b_relu_0_split <- res4b
I1202 15:43:32.465195  3689 net.cpp:408] res4b_res4b_relu_0_split -> res4b_res4b_relu_0_split_0
I1202 15:43:32.465203  3689 net.cpp:408] res4b_res4b_relu_0_split -> res4b_res4b_relu_0_split_1
I1202 15:43:32.465222  3689 net.cpp:150] Setting up res4b_res4b_relu_0_split
I1202 15:43:32.465226  3689 net.cpp:157] Top shape: 16 1024 14 14 (3211264)
I1202 15:43:32.465229  3689 net.cpp:157] Top shape: 16 1024 14 14 (3211264)
I1202 15:43:32.465230  3689 net.cpp:165] Memory required for data: 3066757184
I1202 15:43:32.465232  3689 layer_factory.hpp:77] Creating layer res4c_branch2a
I1202 15:43:32.465239  3689 net.cpp:100] Creating Layer res4c_branch2a
I1202 15:43:32.465240  3689 net.cpp:434] res4c_branch2a <- res4b_res4b_relu_0_split_0
I1202 15:43:32.465243  3689 net.cpp:408] res4c_branch2a -> res4c_branch2a
I1202 15:43:32.465726  3689 net.cpp:150] Setting up res4c_branch2a
I1202 15:43:32.465734  3689 net.cpp:157] Top shape: 16 256 14 14 (802816)
I1202 15:43:32.465736  3689 net.cpp:165] Memory required for data: 3069968448
I1202 15:43:32.465740  3689 layer_factory.hpp:77] Creating layer bn4c_branch2a
I1202 15:43:32.465744  3689 net.cpp:100] Creating Layer bn4c_branch2a
I1202 15:43:32.465746  3689 net.cpp:434] bn4c_branch2a <- res4c_branch2a
I1202 15:43:32.465750  3689 net.cpp:395] bn4c_branch2a -> res4c_branch2a (in-place)
I1202 15:43:32.465857  3689 net.cpp:150] Setting up bn4c_branch2a
I1202 15:43:32.465862  3689 net.cpp:157] Top shape: 16 256 14 14 (802816)
I1202 15:43:32.465864  3689 net.cpp:165] Memory required for data: 3073179712
I1202 15:43:32.465868  3689 layer_factory.hpp:77] Creating layer scale4c_branch2a
I1202 15:43:32.465873  3689 net.cpp:100] Creating Layer scale4c_branch2a
I1202 15:43:32.465874  3689 net.cpp:434] scale4c_branch2a <- res4c_branch2a
I1202 15:43:32.465878  3689 net.cpp:395] scale4c_branch2a -> res4c_branch2a (in-place)
I1202 15:43:32.465901  3689 layer_factory.hpp:77] Creating layer scale4c_branch2a
I1202 15:43:32.465962  3689 net.cpp:150] Setting up scale4c_branch2a
I1202 15:43:32.465966  3689 net.cpp:157] Top shape: 16 256 14 14 (802816)
I1202 15:43:32.465968  3689 net.cpp:165] Memory required for data: 3076390976
I1202 15:43:32.465972  3689 layer_factory.hpp:77] Creating layer res4c_branch2a_relu
I1202 15:43:32.465977  3689 net.cpp:100] Creating Layer res4c_branch2a_relu
I1202 15:43:32.465979  3689 net.cpp:434] res4c_branch2a_relu <- res4c_branch2a
I1202 15:43:32.465982  3689 net.cpp:395] res4c_branch2a_relu -> res4c_branch2a (in-place)
I1202 15:43:32.465986  3689 net.cpp:150] Setting up res4c_branch2a_relu
I1202 15:43:32.465988  3689 net.cpp:157] Top shape: 16 256 14 14 (802816)
I1202 15:43:32.465991  3689 net.cpp:165] Memory required for data: 3079602240
I1202 15:43:32.465993  3689 layer_factory.hpp:77] Creating layer res4c_branch2b
I1202 15:43:32.465998  3689 net.cpp:100] Creating Layer res4c_branch2b
I1202 15:43:32.466001  3689 net.cpp:434] res4c_branch2b <- res4c_branch2a
I1202 15:43:32.466004  3689 net.cpp:408] res4c_branch2b -> res4c_branch2b
I1202 15:43:32.466841  3689 net.cpp:150] Setting up res4c_branch2b
I1202 15:43:32.466852  3689 net.cpp:157] Top shape: 16 256 14 14 (802816)
I1202 15:43:32.466855  3689 net.cpp:165] Memory required for data: 3082813504
I1202 15:43:32.466858  3689 layer_factory.hpp:77] Creating layer bn4c_branch2b
I1202 15:43:32.466864  3689 net.cpp:100] Creating Layer bn4c_branch2b
I1202 15:43:32.466867  3689 net.cpp:434] bn4c_branch2b <- res4c_branch2b
I1202 15:43:32.466871  3689 net.cpp:395] bn4c_branch2b -> res4c_branch2b (in-place)
I1202 15:43:32.466985  3689 net.cpp:150] Setting up bn4c_branch2b
I1202 15:43:32.466989  3689 net.cpp:157] Top shape: 16 256 14 14 (802816)
I1202 15:43:32.466991  3689 net.cpp:165] Memory required for data: 3086024768
I1202 15:43:32.466996  3689 layer_factory.hpp:77] Creating layer scale4c_branch2b
I1202 15:43:32.467000  3689 net.cpp:100] Creating Layer scale4c_branch2b
I1202 15:43:32.467003  3689 net.cpp:434] scale4c_branch2b <- res4c_branch2b
I1202 15:43:32.467007  3689 net.cpp:395] scale4c_branch2b -> res4c_branch2b (in-place)
I1202 15:43:32.467033  3689 layer_factory.hpp:77] Creating layer scale4c_branch2b
I1202 15:43:32.467097  3689 net.cpp:150] Setting up scale4c_branch2b
I1202 15:43:32.467099  3689 net.cpp:157] Top shape: 16 256 14 14 (802816)
I1202 15:43:32.467103  3689 net.cpp:165] Memory required for data: 3089236032
I1202 15:43:32.467115  3689 layer_factory.hpp:77] Creating layer res4c_branch2b_relu
I1202 15:43:32.467118  3689 net.cpp:100] Creating Layer res4c_branch2b_relu
I1202 15:43:32.467121  3689 net.cpp:434] res4c_branch2b_relu <- res4c_branch2b
I1202 15:43:32.467123  3689 net.cpp:395] res4c_branch2b_relu -> res4c_branch2b (in-place)
I1202 15:43:32.467128  3689 net.cpp:150] Setting up res4c_branch2b_relu
I1202 15:43:32.467130  3689 net.cpp:157] Top shape: 16 256 14 14 (802816)
I1202 15:43:32.467133  3689 net.cpp:165] Memory required for data: 3092447296
I1202 15:43:32.467134  3689 layer_factory.hpp:77] Creating layer res4c_branch2c
I1202 15:43:32.467139  3689 net.cpp:100] Creating Layer res4c_branch2c
I1202 15:43:32.467141  3689 net.cpp:434] res4c_branch2c <- res4c_branch2b
I1202 15:43:32.467145  3689 net.cpp:408] res4c_branch2c -> res4c_branch2c
I1202 15:43:32.467610  3689 net.cpp:150] Setting up res4c_branch2c
I1202 15:43:32.467617  3689 net.cpp:157] Top shape: 16 1024 14 14 (3211264)
I1202 15:43:32.467619  3689 net.cpp:165] Memory required for data: 3105292352
I1202 15:43:32.467622  3689 layer_factory.hpp:77] Creating layer bn4c_branch2c
I1202 15:43:32.467627  3689 net.cpp:100] Creating Layer bn4c_branch2c
I1202 15:43:32.467629  3689 net.cpp:434] bn4c_branch2c <- res4c_branch2c
I1202 15:43:32.467639  3689 net.cpp:395] bn4c_branch2c -> res4c_branch2c (in-place)
I1202 15:43:32.467752  3689 net.cpp:150] Setting up bn4c_branch2c
I1202 15:43:32.467756  3689 net.cpp:157] Top shape: 16 1024 14 14 (3211264)
I1202 15:43:32.467758  3689 net.cpp:165] Memory required for data: 3118137408
I1202 15:43:32.467763  3689 layer_factory.hpp:77] Creating layer scale4c_branch2c
I1202 15:43:32.467767  3689 net.cpp:100] Creating Layer scale4c_branch2c
I1202 15:43:32.467769  3689 net.cpp:434] scale4c_branch2c <- res4c_branch2c
I1202 15:43:32.467772  3689 net.cpp:395] scale4c_branch2c -> res4c_branch2c (in-place)
I1202 15:43:32.467794  3689 layer_factory.hpp:77] Creating layer scale4c_branch2c
I1202 15:43:32.467857  3689 net.cpp:150] Setting up scale4c_branch2c
I1202 15:43:32.467861  3689 net.cpp:157] Top shape: 16 1024 14 14 (3211264)
I1202 15:43:32.467864  3689 net.cpp:165] Memory required for data: 3130982464
I1202 15:43:32.467867  3689 layer_factory.hpp:77] Creating layer res4c
I1202 15:43:32.467871  3689 net.cpp:100] Creating Layer res4c
I1202 15:43:32.467875  3689 net.cpp:434] res4c <- res4b_res4b_relu_0_split_1
I1202 15:43:32.467877  3689 net.cpp:434] res4c <- res4c_branch2c
I1202 15:43:32.467880  3689 net.cpp:408] res4c -> res4c
I1202 15:43:32.467895  3689 net.cpp:150] Setting up res4c
I1202 15:43:32.467898  3689 net.cpp:157] Top shape: 16 1024 14 14 (3211264)
I1202 15:43:32.467900  3689 net.cpp:165] Memory required for data: 3143827520
I1202 15:43:32.467902  3689 layer_factory.hpp:77] Creating layer res4c_relu
I1202 15:43:32.467916  3689 net.cpp:100] Creating Layer res4c_relu
I1202 15:43:32.467917  3689 net.cpp:434] res4c_relu <- res4c
I1202 15:43:32.467921  3689 net.cpp:395] res4c_relu -> res4c (in-place)
I1202 15:43:32.467924  3689 net.cpp:150] Setting up res4c_relu
I1202 15:43:32.467927  3689 net.cpp:157] Top shape: 16 1024 14 14 (3211264)
I1202 15:43:32.467929  3689 net.cpp:165] Memory required for data: 3156672576
I1202 15:43:32.467931  3689 layer_factory.hpp:77] Creating layer res4c_res4c_relu_0_split
I1202 15:43:32.467945  3689 net.cpp:100] Creating Layer res4c_res4c_relu_0_split
I1202 15:43:32.467947  3689 net.cpp:434] res4c_res4c_relu_0_split <- res4c
I1202 15:43:32.467949  3689 net.cpp:408] res4c_res4c_relu_0_split -> res4c_res4c_relu_0_split_0
I1202 15:43:32.467953  3689 net.cpp:408] res4c_res4c_relu_0_split -> res4c_res4c_relu_0_split_1
I1202 15:43:32.467972  3689 net.cpp:150] Setting up res4c_res4c_relu_0_split
I1202 15:43:32.467977  3689 net.cpp:157] Top shape: 16 1024 14 14 (3211264)
I1202 15:43:32.467979  3689 net.cpp:157] Top shape: 16 1024 14 14 (3211264)
I1202 15:43:32.467980  3689 net.cpp:165] Memory required for data: 3182362688
I1202 15:43:32.467983  3689 layer_factory.hpp:77] Creating layer res4d_branch2a
I1202 15:43:32.467988  3689 net.cpp:100] Creating Layer res4d_branch2a
I1202 15:43:32.467990  3689 net.cpp:434] res4d_branch2a <- res4c_res4c_relu_0_split_0
I1202 15:43:32.467993  3689 net.cpp:408] res4d_branch2a -> res4d_branch2a
I1202 15:43:32.468444  3689 net.cpp:150] Setting up res4d_branch2a
I1202 15:43:32.468451  3689 net.cpp:157] Top shape: 16 256 14 14 (802816)
I1202 15:43:32.468454  3689 net.cpp:165] Memory required for data: 3185573952
I1202 15:43:32.468457  3689 layer_factory.hpp:77] Creating layer bn4d_branch2a
I1202 15:43:32.468461  3689 net.cpp:100] Creating Layer bn4d_branch2a
I1202 15:43:32.468464  3689 net.cpp:434] bn4d_branch2a <- res4d_branch2a
I1202 15:43:32.468468  3689 net.cpp:395] bn4d_branch2a -> res4d_branch2a (in-place)
I1202 15:43:32.468575  3689 net.cpp:150] Setting up bn4d_branch2a
I1202 15:43:32.468578  3689 net.cpp:157] Top shape: 16 256 14 14 (802816)
I1202 15:43:32.468580  3689 net.cpp:165] Memory required for data: 3188785216
I1202 15:43:32.468585  3689 layer_factory.hpp:77] Creating layer scale4d_branch2a
I1202 15:43:32.468588  3689 net.cpp:100] Creating Layer scale4d_branch2a
I1202 15:43:32.468590  3689 net.cpp:434] scale4d_branch2a <- res4d_branch2a
I1202 15:43:32.468593  3689 net.cpp:395] scale4d_branch2a -> res4d_branch2a (in-place)
I1202 15:43:32.468616  3689 layer_factory.hpp:77] Creating layer scale4d_branch2a
I1202 15:43:32.468677  3689 net.cpp:150] Setting up scale4d_branch2a
I1202 15:43:32.468682  3689 net.cpp:157] Top shape: 16 256 14 14 (802816)
I1202 15:43:32.468683  3689 net.cpp:165] Memory required for data: 3191996480
I1202 15:43:32.468686  3689 layer_factory.hpp:77] Creating layer res4d_branch2a_relu
I1202 15:43:32.468691  3689 net.cpp:100] Creating Layer res4d_branch2a_relu
I1202 15:43:32.468693  3689 net.cpp:434] res4d_branch2a_relu <- res4d_branch2a
I1202 15:43:32.468696  3689 net.cpp:395] res4d_branch2a_relu -> res4d_branch2a (in-place)
I1202 15:43:32.468699  3689 net.cpp:150] Setting up res4d_branch2a_relu
I1202 15:43:32.468703  3689 net.cpp:157] Top shape: 16 256 14 14 (802816)
I1202 15:43:32.468704  3689 net.cpp:165] Memory required for data: 3195207744
I1202 15:43:32.468706  3689 layer_factory.hpp:77] Creating layer res4d_branch2b
I1202 15:43:32.468711  3689 net.cpp:100] Creating Layer res4d_branch2b
I1202 15:43:32.468713  3689 net.cpp:434] res4d_branch2b <- res4d_branch2a
I1202 15:43:32.468716  3689 net.cpp:408] res4d_branch2b -> res4d_branch2b
I1202 15:43:32.469529  3689 net.cpp:150] Setting up res4d_branch2b
I1202 15:43:32.469537  3689 net.cpp:157] Top shape: 16 256 14 14 (802816)
I1202 15:43:32.469538  3689 net.cpp:165] Memory required for data: 3198419008
I1202 15:43:32.469542  3689 layer_factory.hpp:77] Creating layer bn4d_branch2b
I1202 15:43:32.469545  3689 net.cpp:100] Creating Layer bn4d_branch2b
I1202 15:43:32.469548  3689 net.cpp:434] bn4d_branch2b <- res4d_branch2b
I1202 15:43:32.469552  3689 net.cpp:395] bn4d_branch2b -> res4d_branch2b (in-place)
I1202 15:43:32.469707  3689 net.cpp:150] Setting up bn4d_branch2b
I1202 15:43:32.469714  3689 net.cpp:157] Top shape: 16 256 14 14 (802816)
I1202 15:43:32.469717  3689 net.cpp:165] Memory required for data: 3201630272
I1202 15:43:32.469722  3689 layer_factory.hpp:77] Creating layer scale4d_branch2b
I1202 15:43:32.469725  3689 net.cpp:100] Creating Layer scale4d_branch2b
I1202 15:43:32.469728  3689 net.cpp:434] scale4d_branch2b <- res4d_branch2b
I1202 15:43:32.469732  3689 net.cpp:395] scale4d_branch2b -> res4d_branch2b (in-place)
I1202 15:43:32.469756  3689 layer_factory.hpp:77] Creating layer scale4d_branch2b
I1202 15:43:32.469818  3689 net.cpp:150] Setting up scale4d_branch2b
I1202 15:43:32.469822  3689 net.cpp:157] Top shape: 16 256 14 14 (802816)
I1202 15:43:32.469825  3689 net.cpp:165] Memory required for data: 3204841536
I1202 15:43:32.469828  3689 layer_factory.hpp:77] Creating layer res4d_branch2b_relu
I1202 15:43:32.469831  3689 net.cpp:100] Creating Layer res4d_branch2b_relu
I1202 15:43:32.469835  3689 net.cpp:434] res4d_branch2b_relu <- res4d_branch2b
I1202 15:43:32.469837  3689 net.cpp:395] res4d_branch2b_relu -> res4d_branch2b (in-place)
I1202 15:43:32.469841  3689 net.cpp:150] Setting up res4d_branch2b_relu
I1202 15:43:32.469844  3689 net.cpp:157] Top shape: 16 256 14 14 (802816)
I1202 15:43:32.469846  3689 net.cpp:165] Memory required for data: 3208052800
I1202 15:43:32.469848  3689 layer_factory.hpp:77] Creating layer res4d_branch2c
I1202 15:43:32.469852  3689 net.cpp:100] Creating Layer res4d_branch2c
I1202 15:43:32.469854  3689 net.cpp:434] res4d_branch2c <- res4d_branch2b
I1202 15:43:32.469858  3689 net.cpp:408] res4d_branch2c -> res4d_branch2c
I1202 15:43:32.470312  3689 net.cpp:150] Setting up res4d_branch2c
I1202 15:43:32.470319  3689 net.cpp:157] Top shape: 16 1024 14 14 (3211264)
I1202 15:43:32.470321  3689 net.cpp:165] Memory required for data: 3220897856
I1202 15:43:32.470324  3689 layer_factory.hpp:77] Creating layer bn4d_branch2c
I1202 15:43:32.470329  3689 net.cpp:100] Creating Layer bn4d_branch2c
I1202 15:43:32.470331  3689 net.cpp:434] bn4d_branch2c <- res4d_branch2c
I1202 15:43:32.470335  3689 net.cpp:395] bn4d_branch2c -> res4d_branch2c (in-place)
I1202 15:43:32.470466  3689 net.cpp:150] Setting up bn4d_branch2c
I1202 15:43:32.470470  3689 net.cpp:157] Top shape: 16 1024 14 14 (3211264)
I1202 15:43:32.470473  3689 net.cpp:165] Memory required for data: 3233742912
I1202 15:43:32.470486  3689 layer_factory.hpp:77] Creating layer scale4d_branch2c
I1202 15:43:32.470490  3689 net.cpp:100] Creating Layer scale4d_branch2c
I1202 15:43:32.470494  3689 net.cpp:434] scale4d_branch2c <- res4d_branch2c
I1202 15:43:32.470496  3689 net.cpp:395] scale4d_branch2c -> res4d_branch2c (in-place)
I1202 15:43:32.470518  3689 layer_factory.hpp:77] Creating layer scale4d_branch2c
I1202 15:43:32.470583  3689 net.cpp:150] Setting up scale4d_branch2c
I1202 15:43:32.470587  3689 net.cpp:157] Top shape: 16 1024 14 14 (3211264)
I1202 15:43:32.470588  3689 net.cpp:165] Memory required for data: 3246587968
I1202 15:43:32.470592  3689 layer_factory.hpp:77] Creating layer res4d
I1202 15:43:32.470597  3689 net.cpp:100] Creating Layer res4d
I1202 15:43:32.470599  3689 net.cpp:434] res4d <- res4c_res4c_relu_0_split_1
I1202 15:43:32.470602  3689 net.cpp:434] res4d <- res4d_branch2c
I1202 15:43:32.470605  3689 net.cpp:408] res4d -> res4d
I1202 15:43:32.470619  3689 net.cpp:150] Setting up res4d
I1202 15:43:32.470623  3689 net.cpp:157] Top shape: 16 1024 14 14 (3211264)
I1202 15:43:32.470625  3689 net.cpp:165] Memory required for data: 3259433024
I1202 15:43:32.470628  3689 layer_factory.hpp:77] Creating layer res4d_relu
I1202 15:43:32.470630  3689 net.cpp:100] Creating Layer res4d_relu
I1202 15:43:32.470633  3689 net.cpp:434] res4d_relu <- res4d
I1202 15:43:32.470636  3689 net.cpp:395] res4d_relu -> res4d (in-place)
I1202 15:43:32.470639  3689 net.cpp:150] Setting up res4d_relu
I1202 15:43:32.470643  3689 net.cpp:157] Top shape: 16 1024 14 14 (3211264)
I1202 15:43:32.470644  3689 net.cpp:165] Memory required for data: 3272278080
I1202 15:43:32.470646  3689 layer_factory.hpp:77] Creating layer res4d_res4d_relu_0_split
I1202 15:43:32.470649  3689 net.cpp:100] Creating Layer res4d_res4d_relu_0_split
I1202 15:43:32.470651  3689 net.cpp:434] res4d_res4d_relu_0_split <- res4d
I1202 15:43:32.470654  3689 net.cpp:408] res4d_res4d_relu_0_split -> res4d_res4d_relu_0_split_0
I1202 15:43:32.470657  3689 net.cpp:408] res4d_res4d_relu_0_split -> res4d_res4d_relu_0_split_1
I1202 15:43:32.470677  3689 net.cpp:150] Setting up res4d_res4d_relu_0_split
I1202 15:43:32.470680  3689 net.cpp:157] Top shape: 16 1024 14 14 (3211264)
I1202 15:43:32.470682  3689 net.cpp:157] Top shape: 16 1024 14 14 (3211264)
I1202 15:43:32.470685  3689 net.cpp:165] Memory required for data: 3297968192
I1202 15:43:32.470686  3689 layer_factory.hpp:77] Creating layer res4e_branch2a
I1202 15:43:32.470691  3689 net.cpp:100] Creating Layer res4e_branch2a
I1202 15:43:32.470693  3689 net.cpp:434] res4e_branch2a <- res4d_res4d_relu_0_split_0
I1202 15:43:32.470696  3689 net.cpp:408] res4e_branch2a -> res4e_branch2a
I1202 15:43:32.471138  3689 net.cpp:150] Setting up res4e_branch2a
I1202 15:43:32.471144  3689 net.cpp:157] Top shape: 16 256 14 14 (802816)
I1202 15:43:32.471146  3689 net.cpp:165] Memory required for data: 3301179456
I1202 15:43:32.471149  3689 layer_factory.hpp:77] Creating layer bn4e_branch2a
I1202 15:43:32.471154  3689 net.cpp:100] Creating Layer bn4e_branch2a
I1202 15:43:32.471158  3689 net.cpp:434] bn4e_branch2a <- res4e_branch2a
I1202 15:43:32.471160  3689 net.cpp:395] bn4e_branch2a -> res4e_branch2a (in-place)
I1202 15:43:32.471267  3689 net.cpp:150] Setting up bn4e_branch2a
I1202 15:43:32.471271  3689 net.cpp:157] Top shape: 16 256 14 14 (802816)
I1202 15:43:32.471273  3689 net.cpp:165] Memory required for data: 3304390720
I1202 15:43:32.471277  3689 layer_factory.hpp:77] Creating layer scale4e_branch2a
I1202 15:43:32.471282  3689 net.cpp:100] Creating Layer scale4e_branch2a
I1202 15:43:32.471284  3689 net.cpp:434] scale4e_branch2a <- res4e_branch2a
I1202 15:43:32.471287  3689 net.cpp:395] scale4e_branch2a -> res4e_branch2a (in-place)
I1202 15:43:32.471310  3689 layer_factory.hpp:77] Creating layer scale4e_branch2a
I1202 15:43:32.471384  3689 net.cpp:150] Setting up scale4e_branch2a
I1202 15:43:32.471388  3689 net.cpp:157] Top shape: 16 256 14 14 (802816)
I1202 15:43:32.471400  3689 net.cpp:165] Memory required for data: 3307601984
I1202 15:43:32.471402  3689 layer_factory.hpp:77] Creating layer res4e_branch2a_relu
I1202 15:43:32.471406  3689 net.cpp:100] Creating Layer res4e_branch2a_relu
I1202 15:43:32.471421  3689 net.cpp:434] res4e_branch2a_relu <- res4e_branch2a
I1202 15:43:32.471426  3689 net.cpp:395] res4e_branch2a_relu -> res4e_branch2a (in-place)
I1202 15:43:32.471429  3689 net.cpp:150] Setting up res4e_branch2a_relu
I1202 15:43:32.471441  3689 net.cpp:157] Top shape: 16 256 14 14 (802816)
I1202 15:43:32.471443  3689 net.cpp:165] Memory required for data: 3310813248
I1202 15:43:32.471446  3689 layer_factory.hpp:77] Creating layer res4e_branch2b
I1202 15:43:32.471451  3689 net.cpp:100] Creating Layer res4e_branch2b
I1202 15:43:32.471452  3689 net.cpp:434] res4e_branch2b <- res4e_branch2a
I1202 15:43:32.471456  3689 net.cpp:408] res4e_branch2b -> res4e_branch2b
I1202 15:43:32.472329  3689 net.cpp:150] Setting up res4e_branch2b
I1202 15:43:32.472337  3689 net.cpp:157] Top shape: 16 256 14 14 (802816)
I1202 15:43:32.472339  3689 net.cpp:165] Memory required for data: 3314024512
I1202 15:43:32.472342  3689 layer_factory.hpp:77] Creating layer bn4e_branch2b
I1202 15:43:32.472348  3689 net.cpp:100] Creating Layer bn4e_branch2b
I1202 15:43:32.472350  3689 net.cpp:434] bn4e_branch2b <- res4e_branch2b
I1202 15:43:32.472354  3689 net.cpp:395] bn4e_branch2b -> res4e_branch2b (in-place)
I1202 15:43:32.472460  3689 net.cpp:150] Setting up bn4e_branch2b
I1202 15:43:32.472465  3689 net.cpp:157] Top shape: 16 256 14 14 (802816)
I1202 15:43:32.472466  3689 net.cpp:165] Memory required for data: 3317235776
I1202 15:43:32.472471  3689 layer_factory.hpp:77] Creating layer scale4e_branch2b
I1202 15:43:32.472475  3689 net.cpp:100] Creating Layer scale4e_branch2b
I1202 15:43:32.472477  3689 net.cpp:434] scale4e_branch2b <- res4e_branch2b
I1202 15:43:32.472481  3689 net.cpp:395] scale4e_branch2b -> res4e_branch2b (in-place)
I1202 15:43:32.472502  3689 layer_factory.hpp:77] Creating layer scale4e_branch2b
I1202 15:43:32.472563  3689 net.cpp:150] Setting up scale4e_branch2b
I1202 15:43:32.472568  3689 net.cpp:157] Top shape: 16 256 14 14 (802816)
I1202 15:43:32.472569  3689 net.cpp:165] Memory required for data: 3320447040
I1202 15:43:32.472573  3689 layer_factory.hpp:77] Creating layer res4e_branch2b_relu
I1202 15:43:32.472576  3689 net.cpp:100] Creating Layer res4e_branch2b_relu
I1202 15:43:32.472579  3689 net.cpp:434] res4e_branch2b_relu <- res4e_branch2b
I1202 15:43:32.472581  3689 net.cpp:395] res4e_branch2b_relu -> res4e_branch2b (in-place)
I1202 15:43:32.472584  3689 net.cpp:150] Setting up res4e_branch2b_relu
I1202 15:43:32.472587  3689 net.cpp:157] Top shape: 16 256 14 14 (802816)
I1202 15:43:32.472589  3689 net.cpp:165] Memory required for data: 3323658304
I1202 15:43:32.472591  3689 layer_factory.hpp:77] Creating layer res4e_branch2c
I1202 15:43:32.472596  3689 net.cpp:100] Creating Layer res4e_branch2c
I1202 15:43:32.472599  3689 net.cpp:434] res4e_branch2c <- res4e_branch2b
I1202 15:43:32.472602  3689 net.cpp:408] res4e_branch2c -> res4e_branch2c
I1202 15:43:32.473099  3689 net.cpp:150] Setting up res4e_branch2c
I1202 15:43:32.473106  3689 net.cpp:157] Top shape: 16 1024 14 14 (3211264)
I1202 15:43:32.473109  3689 net.cpp:165] Memory required for data: 3336503360
I1202 15:43:32.473112  3689 layer_factory.hpp:77] Creating layer bn4e_branch2c
I1202 15:43:32.473116  3689 net.cpp:100] Creating Layer bn4e_branch2c
I1202 15:43:32.473119  3689 net.cpp:434] bn4e_branch2c <- res4e_branch2c
I1202 15:43:32.473122  3689 net.cpp:395] bn4e_branch2c -> res4e_branch2c (in-place)
I1202 15:43:32.473237  3689 net.cpp:150] Setting up bn4e_branch2c
I1202 15:43:32.473242  3689 net.cpp:157] Top shape: 16 1024 14 14 (3211264)
I1202 15:43:32.473243  3689 net.cpp:165] Memory required for data: 3349348416
I1202 15:43:32.473248  3689 layer_factory.hpp:77] Creating layer scale4e_branch2c
I1202 15:43:32.473251  3689 net.cpp:100] Creating Layer scale4e_branch2c
I1202 15:43:32.473254  3689 net.cpp:434] scale4e_branch2c <- res4e_branch2c
I1202 15:43:32.473256  3689 net.cpp:395] scale4e_branch2c -> res4e_branch2c (in-place)
I1202 15:43:32.473280  3689 layer_factory.hpp:77] Creating layer scale4e_branch2c
I1202 15:43:32.473350  3689 net.cpp:150] Setting up scale4e_branch2c
I1202 15:43:32.473353  3689 net.cpp:157] Top shape: 16 1024 14 14 (3211264)
I1202 15:43:32.473356  3689 net.cpp:165] Memory required for data: 3362193472
I1202 15:43:32.473359  3689 layer_factory.hpp:77] Creating layer res4e
I1202 15:43:32.473364  3689 net.cpp:100] Creating Layer res4e
I1202 15:43:32.473366  3689 net.cpp:434] res4e <- res4d_res4d_relu_0_split_1
I1202 15:43:32.473369  3689 net.cpp:434] res4e <- res4e_branch2c
I1202 15:43:32.473372  3689 net.cpp:408] res4e -> res4e
I1202 15:43:32.473387  3689 net.cpp:150] Setting up res4e
I1202 15:43:32.473390  3689 net.cpp:157] Top shape: 16 1024 14 14 (3211264)
I1202 15:43:32.473392  3689 net.cpp:165] Memory required for data: 3375038528
I1202 15:43:32.473394  3689 layer_factory.hpp:77] Creating layer res4e_relu
I1202 15:43:32.473398  3689 net.cpp:100] Creating Layer res4e_relu
I1202 15:43:32.473400  3689 net.cpp:434] res4e_relu <- res4e
I1202 15:43:32.473403  3689 net.cpp:395] res4e_relu -> res4e (in-place)
I1202 15:43:32.473407  3689 net.cpp:150] Setting up res4e_relu
I1202 15:43:32.473410  3689 net.cpp:157] Top shape: 16 1024 14 14 (3211264)
I1202 15:43:32.473412  3689 net.cpp:165] Memory required for data: 3387883584
I1202 15:43:32.473414  3689 layer_factory.hpp:77] Creating layer res4e_res4e_relu_0_split
I1202 15:43:32.473417  3689 net.cpp:100] Creating Layer res4e_res4e_relu_0_split
I1202 15:43:32.473419  3689 net.cpp:434] res4e_res4e_relu_0_split <- res4e
I1202 15:43:32.473423  3689 net.cpp:408] res4e_res4e_relu_0_split -> res4e_res4e_relu_0_split_0
I1202 15:43:32.473425  3689 net.cpp:408] res4e_res4e_relu_0_split -> res4e_res4e_relu_0_split_1
I1202 15:43:32.473445  3689 net.cpp:150] Setting up res4e_res4e_relu_0_split
I1202 15:43:32.473449  3689 net.cpp:157] Top shape: 16 1024 14 14 (3211264)
I1202 15:43:32.473451  3689 net.cpp:157] Top shape: 16 1024 14 14 (3211264)
I1202 15:43:32.473453  3689 net.cpp:165] Memory required for data: 3413573696
I1202 15:43:32.473455  3689 layer_factory.hpp:77] Creating layer res4f_branch2a
I1202 15:43:32.473460  3689 net.cpp:100] Creating Layer res4f_branch2a
I1202 15:43:32.473462  3689 net.cpp:434] res4f_branch2a <- res4e_res4e_relu_0_split_0
I1202 15:43:32.473465  3689 net.cpp:408] res4f_branch2a -> res4f_branch2a
I1202 15:43:32.474016  3689 net.cpp:150] Setting up res4f_branch2a
I1202 15:43:32.474025  3689 net.cpp:157] Top shape: 16 256 14 14 (802816)
I1202 15:43:32.474026  3689 net.cpp:165] Memory required for data: 3416784960
I1202 15:43:32.474030  3689 layer_factory.hpp:77] Creating layer bn4f_branch2a
I1202 15:43:32.474035  3689 net.cpp:100] Creating Layer bn4f_branch2a
I1202 15:43:32.474037  3689 net.cpp:434] bn4f_branch2a <- res4f_branch2a
I1202 15:43:32.474041  3689 net.cpp:395] bn4f_branch2a -> res4f_branch2a (in-place)
I1202 15:43:32.474161  3689 net.cpp:150] Setting up bn4f_branch2a
I1202 15:43:32.474165  3689 net.cpp:157] Top shape: 16 256 14 14 (802816)
I1202 15:43:32.474167  3689 net.cpp:165] Memory required for data: 3419996224
I1202 15:43:32.474172  3689 layer_factory.hpp:77] Creating layer scale4f_branch2a
I1202 15:43:32.474176  3689 net.cpp:100] Creating Layer scale4f_branch2a
I1202 15:43:32.474179  3689 net.cpp:434] scale4f_branch2a <- res4f_branch2a
I1202 15:43:32.474181  3689 net.cpp:395] scale4f_branch2a -> res4f_branch2a (in-place)
I1202 15:43:32.474205  3689 layer_factory.hpp:77] Creating layer scale4f_branch2a
I1202 15:43:32.474267  3689 net.cpp:150] Setting up scale4f_branch2a
I1202 15:43:32.474270  3689 net.cpp:157] Top shape: 16 256 14 14 (802816)
I1202 15:43:32.474272  3689 net.cpp:165] Memory required for data: 3423207488
I1202 15:43:32.474275  3689 layer_factory.hpp:77] Creating layer res4f_branch2a_relu
I1202 15:43:32.474279  3689 net.cpp:100] Creating Layer res4f_branch2a_relu
I1202 15:43:32.474282  3689 net.cpp:434] res4f_branch2a_relu <- res4f_branch2a
I1202 15:43:32.474285  3689 net.cpp:395] res4f_branch2a_relu -> res4f_branch2a (in-place)
I1202 15:43:32.474288  3689 net.cpp:150] Setting up res4f_branch2a_relu
I1202 15:43:32.474292  3689 net.cpp:157] Top shape: 16 256 14 14 (802816)
I1202 15:43:32.474293  3689 net.cpp:165] Memory required for data: 3426418752
I1202 15:43:32.474295  3689 layer_factory.hpp:77] Creating layer res4f_branch2b
I1202 15:43:32.474300  3689 net.cpp:100] Creating Layer res4f_branch2b
I1202 15:43:32.474303  3689 net.cpp:434] res4f_branch2b <- res4f_branch2a
I1202 15:43:32.474306  3689 net.cpp:408] res4f_branch2b -> res4f_branch2b
I1202 15:43:32.475250  3689 net.cpp:150] Setting up res4f_branch2b
I1202 15:43:32.475258  3689 net.cpp:157] Top shape: 16 256 14 14 (802816)
I1202 15:43:32.475261  3689 net.cpp:165] Memory required for data: 3429630016
I1202 15:43:32.475265  3689 layer_factory.hpp:77] Creating layer bn4f_branch2b
I1202 15:43:32.475268  3689 net.cpp:100] Creating Layer bn4f_branch2b
I1202 15:43:32.475271  3689 net.cpp:434] bn4f_branch2b <- res4f_branch2b
I1202 15:43:32.475275  3689 net.cpp:395] bn4f_branch2b -> res4f_branch2b (in-place)
I1202 15:43:32.475386  3689 net.cpp:150] Setting up bn4f_branch2b
I1202 15:43:32.475390  3689 net.cpp:157] Top shape: 16 256 14 14 (802816)
I1202 15:43:32.475392  3689 net.cpp:165] Memory required for data: 3432841280
I1202 15:43:32.475397  3689 layer_factory.hpp:77] Creating layer scale4f_branch2b
I1202 15:43:32.475401  3689 net.cpp:100] Creating Layer scale4f_branch2b
I1202 15:43:32.475404  3689 net.cpp:434] scale4f_branch2b <- res4f_branch2b
I1202 15:43:32.475407  3689 net.cpp:395] scale4f_branch2b -> res4f_branch2b (in-place)
I1202 15:43:32.475432  3689 layer_factory.hpp:77] Creating layer scale4f_branch2b
I1202 15:43:32.475504  3689 net.cpp:150] Setting up scale4f_branch2b
I1202 15:43:32.475508  3689 net.cpp:157] Top shape: 16 256 14 14 (802816)
I1202 15:43:32.475510  3689 net.cpp:165] Memory required for data: 3436052544
I1202 15:43:32.475514  3689 layer_factory.hpp:77] Creating layer res4f_branch2b_relu
I1202 15:43:32.475519  3689 net.cpp:100] Creating Layer res4f_branch2b_relu
I1202 15:43:32.475522  3689 net.cpp:434] res4f_branch2b_relu <- res4f_branch2b
I1202 15:43:32.475524  3689 net.cpp:395] res4f_branch2b_relu -> res4f_branch2b (in-place)
I1202 15:43:32.475528  3689 net.cpp:150] Setting up res4f_branch2b_relu
I1202 15:43:32.475531  3689 net.cpp:157] Top shape: 16 256 14 14 (802816)
I1202 15:43:32.475533  3689 net.cpp:165] Memory required for data: 3439263808
I1202 15:43:32.475535  3689 layer_factory.hpp:77] Creating layer res4f_branch2c
I1202 15:43:32.475540  3689 net.cpp:100] Creating Layer res4f_branch2c
I1202 15:43:32.475543  3689 net.cpp:434] res4f_branch2c <- res4f_branch2b
I1202 15:43:32.475545  3689 net.cpp:408] res4f_branch2c -> res4f_branch2c
I1202 15:43:32.476166  3689 net.cpp:150] Setting up res4f_branch2c
I1202 15:43:32.476174  3689 net.cpp:157] Top shape: 16 1024 14 14 (3211264)
I1202 15:43:32.476176  3689 net.cpp:165] Memory required for data: 3452108864
I1202 15:43:32.476181  3689 layer_factory.hpp:77] Creating layer bn4f_branch2c
I1202 15:43:32.476184  3689 net.cpp:100] Creating Layer bn4f_branch2c
I1202 15:43:32.476187  3689 net.cpp:434] bn4f_branch2c <- res4f_branch2c
I1202 15:43:32.476191  3689 net.cpp:395] bn4f_branch2c -> res4f_branch2c (in-place)
I1202 15:43:32.476306  3689 net.cpp:150] Setting up bn4f_branch2c
I1202 15:43:32.476310  3689 net.cpp:157] Top shape: 16 1024 14 14 (3211264)
I1202 15:43:32.476313  3689 net.cpp:165] Memory required for data: 3464953920
I1202 15:43:32.476338  3689 layer_factory.hpp:77] Creating layer scale4f_branch2c
I1202 15:43:32.476352  3689 net.cpp:100] Creating Layer scale4f_branch2c
I1202 15:43:32.476354  3689 net.cpp:434] scale4f_branch2c <- res4f_branch2c
I1202 15:43:32.476357  3689 net.cpp:395] scale4f_branch2c -> res4f_branch2c (in-place)
I1202 15:43:32.476393  3689 layer_factory.hpp:77] Creating layer scale4f_branch2c
I1202 15:43:32.476460  3689 net.cpp:150] Setting up scale4f_branch2c
I1202 15:43:32.476464  3689 net.cpp:157] Top shape: 16 1024 14 14 (3211264)
I1202 15:43:32.476466  3689 net.cpp:165] Memory required for data: 3477798976
I1202 15:43:32.476469  3689 layer_factory.hpp:77] Creating layer res4f
I1202 15:43:32.476475  3689 net.cpp:100] Creating Layer res4f
I1202 15:43:32.476477  3689 net.cpp:434] res4f <- res4e_res4e_relu_0_split_1
I1202 15:43:32.476480  3689 net.cpp:434] res4f <- res4f_branch2c
I1202 15:43:32.476483  3689 net.cpp:408] res4f -> res4f
I1202 15:43:32.476498  3689 net.cpp:150] Setting up res4f
I1202 15:43:32.476502  3689 net.cpp:157] Top shape: 16 1024 14 14 (3211264)
I1202 15:43:32.476505  3689 net.cpp:165] Memory required for data: 3490644032
I1202 15:43:32.476506  3689 layer_factory.hpp:77] Creating layer res4f_relu
I1202 15:43:32.476511  3689 net.cpp:100] Creating Layer res4f_relu
I1202 15:43:32.476512  3689 net.cpp:434] res4f_relu <- res4f
I1202 15:43:32.476516  3689 net.cpp:395] res4f_relu -> res4f (in-place)
I1202 15:43:32.476519  3689 net.cpp:150] Setting up res4f_relu
I1202 15:43:32.476521  3689 net.cpp:157] Top shape: 16 1024 14 14 (3211264)
I1202 15:43:32.476523  3689 net.cpp:165] Memory required for data: 3503489088
I1202 15:43:32.476526  3689 layer_factory.hpp:77] Creating layer res4f_res4f_relu_0_split
I1202 15:43:32.476529  3689 net.cpp:100] Creating Layer res4f_res4f_relu_0_split
I1202 15:43:32.476531  3689 net.cpp:434] res4f_res4f_relu_0_split <- res4f
I1202 15:43:32.476534  3689 net.cpp:408] res4f_res4f_relu_0_split -> res4f_res4f_relu_0_split_0
I1202 15:43:32.476538  3689 net.cpp:408] res4f_res4f_relu_0_split -> res4f_res4f_relu_0_split_1
I1202 15:43:32.476558  3689 net.cpp:150] Setting up res4f_res4f_relu_0_split
I1202 15:43:32.476562  3689 net.cpp:157] Top shape: 16 1024 14 14 (3211264)
I1202 15:43:32.476564  3689 net.cpp:157] Top shape: 16 1024 14 14 (3211264)
I1202 15:43:32.476567  3689 net.cpp:165] Memory required for data: 3529179200
I1202 15:43:32.476568  3689 layer_factory.hpp:77] Creating layer res5a_branch1
I1202 15:43:32.476573  3689 net.cpp:100] Creating Layer res5a_branch1
I1202 15:43:32.476577  3689 net.cpp:434] res5a_branch1 <- res4f_res4f_relu_0_split_0
I1202 15:43:32.476579  3689 net.cpp:408] res5a_branch1 -> res5a_branch1
I1202 15:43:32.479600  3689 net.cpp:150] Setting up res5a_branch1
I1202 15:43:32.479624  3689 net.cpp:157] Top shape: 16 2048 7 7 (1605632)
I1202 15:43:32.479626  3689 net.cpp:165] Memory required for data: 3535601728
I1202 15:43:32.479631  3689 layer_factory.hpp:77] Creating layer bn5a_branch1
I1202 15:43:32.479640  3689 net.cpp:100] Creating Layer bn5a_branch1
I1202 15:43:32.479643  3689 net.cpp:434] bn5a_branch1 <- res5a_branch1
I1202 15:43:32.479648  3689 net.cpp:395] bn5a_branch1 -> res5a_branch1 (in-place)
I1202 15:43:32.479781  3689 net.cpp:150] Setting up bn5a_branch1
I1202 15:43:32.479785  3689 net.cpp:157] Top shape: 16 2048 7 7 (1605632)
I1202 15:43:32.479787  3689 net.cpp:165] Memory required for data: 3542024256
I1202 15:43:32.479792  3689 layer_factory.hpp:77] Creating layer scale5a_branch1
I1202 15:43:32.479796  3689 net.cpp:100] Creating Layer scale5a_branch1
I1202 15:43:32.479799  3689 net.cpp:434] scale5a_branch1 <- res5a_branch1
I1202 15:43:32.479802  3689 net.cpp:395] scale5a_branch1 -> res5a_branch1 (in-place)
I1202 15:43:32.479830  3689 layer_factory.hpp:77] Creating layer scale5a_branch1
I1202 15:43:32.479898  3689 net.cpp:150] Setting up scale5a_branch1
I1202 15:43:32.479903  3689 net.cpp:157] Top shape: 16 2048 7 7 (1605632)
I1202 15:43:32.479905  3689 net.cpp:165] Memory required for data: 3548446784
I1202 15:43:32.479908  3689 layer_factory.hpp:77] Creating layer res5a_branch2a
I1202 15:43:32.479914  3689 net.cpp:100] Creating Layer res5a_branch2a
I1202 15:43:32.479918  3689 net.cpp:434] res5a_branch2a <- res4f_res4f_relu_0_split_1
I1202 15:43:32.479921  3689 net.cpp:408] res5a_branch2a -> res5a_branch2a
I1202 15:43:32.480710  3689 net.cpp:150] Setting up res5a_branch2a
I1202 15:43:32.480716  3689 net.cpp:157] Top shape: 16 512 7 7 (401408)
I1202 15:43:32.480718  3689 net.cpp:165] Memory required for data: 3550052416
I1202 15:43:32.480722  3689 layer_factory.hpp:77] Creating layer bn5a_branch2a
I1202 15:43:32.480726  3689 net.cpp:100] Creating Layer bn5a_branch2a
I1202 15:43:32.480728  3689 net.cpp:434] bn5a_branch2a <- res5a_branch2a
I1202 15:43:32.480731  3689 net.cpp:395] bn5a_branch2a -> res5a_branch2a (in-place)
I1202 15:43:32.480845  3689 net.cpp:150] Setting up bn5a_branch2a
I1202 15:43:32.480850  3689 net.cpp:157] Top shape: 16 512 7 7 (401408)
I1202 15:43:32.480852  3689 net.cpp:165] Memory required for data: 3551658048
I1202 15:43:32.480857  3689 layer_factory.hpp:77] Creating layer scale5a_branch2a
I1202 15:43:32.480861  3689 net.cpp:100] Creating Layer scale5a_branch2a
I1202 15:43:32.480865  3689 net.cpp:434] scale5a_branch2a <- res5a_branch2a
I1202 15:43:32.480866  3689 net.cpp:395] scale5a_branch2a -> res5a_branch2a (in-place)
I1202 15:43:32.480890  3689 layer_factory.hpp:77] Creating layer scale5a_branch2a
I1202 15:43:32.480954  3689 net.cpp:150] Setting up scale5a_branch2a
I1202 15:43:32.480958  3689 net.cpp:157] Top shape: 16 512 7 7 (401408)
I1202 15:43:32.480960  3689 net.cpp:165] Memory required for data: 3553263680
I1202 15:43:32.480964  3689 layer_factory.hpp:77] Creating layer res5a_branch2a_relu
I1202 15:43:32.480969  3689 net.cpp:100] Creating Layer res5a_branch2a_relu
I1202 15:43:32.480972  3689 net.cpp:434] res5a_branch2a_relu <- res5a_branch2a
I1202 15:43:32.480974  3689 net.cpp:395] res5a_branch2a_relu -> res5a_branch2a (in-place)
I1202 15:43:32.480978  3689 net.cpp:150] Setting up res5a_branch2a_relu
I1202 15:43:32.480981  3689 net.cpp:157] Top shape: 16 512 7 7 (401408)
I1202 15:43:32.480983  3689 net.cpp:165] Memory required for data: 3554869312
I1202 15:43:32.480985  3689 layer_factory.hpp:77] Creating layer res5a_branch2b
I1202 15:43:32.480990  3689 net.cpp:100] Creating Layer res5a_branch2b
I1202 15:43:32.480993  3689 net.cpp:434] res5a_branch2b <- res5a_branch2a
I1202 15:43:32.480995  3689 net.cpp:408] res5a_branch2b -> res5a_branch2b
I1202 15:43:32.484457  3689 net.cpp:150] Setting up res5a_branch2b
I1202 15:43:32.484475  3689 net.cpp:157] Top shape: 16 512 7 7 (401408)
I1202 15:43:32.484478  3689 net.cpp:165] Memory required for data: 3556474944
I1202 15:43:32.484483  3689 layer_factory.hpp:77] Creating layer bn5a_branch2b
I1202 15:43:32.484493  3689 net.cpp:100] Creating Layer bn5a_branch2b
I1202 15:43:32.484496  3689 net.cpp:434] bn5a_branch2b <- res5a_branch2b
I1202 15:43:32.484501  3689 net.cpp:395] bn5a_branch2b -> res5a_branch2b (in-place)
I1202 15:43:32.484676  3689 net.cpp:150] Setting up bn5a_branch2b
I1202 15:43:32.484685  3689 net.cpp:157] Top shape: 16 512 7 7 (401408)
I1202 15:43:32.484689  3689 net.cpp:165] Memory required for data: 3558080576
I1202 15:43:32.484697  3689 layer_factory.hpp:77] Creating layer scale5a_branch2b
I1202 15:43:32.484706  3689 net.cpp:100] Creating Layer scale5a_branch2b
I1202 15:43:32.484710  3689 net.cpp:434] scale5a_branch2b <- res5a_branch2b
I1202 15:43:32.484714  3689 net.cpp:395] scale5a_branch2b -> res5a_branch2b (in-place)
I1202 15:43:32.484746  3689 layer_factory.hpp:77] Creating layer scale5a_branch2b
I1202 15:43:32.484824  3689 net.cpp:150] Setting up scale5a_branch2b
I1202 15:43:32.484828  3689 net.cpp:157] Top shape: 16 512 7 7 (401408)
I1202 15:43:32.484830  3689 net.cpp:165] Memory required for data: 3559686208
I1202 15:43:32.484834  3689 layer_factory.hpp:77] Creating layer res5a_branch2b_relu
I1202 15:43:32.484838  3689 net.cpp:100] Creating Layer res5a_branch2b_relu
I1202 15:43:32.484841  3689 net.cpp:434] res5a_branch2b_relu <- res5a_branch2b
I1202 15:43:32.484844  3689 net.cpp:395] res5a_branch2b_relu -> res5a_branch2b (in-place)
I1202 15:43:32.484848  3689 net.cpp:150] Setting up res5a_branch2b_relu
I1202 15:43:32.484851  3689 net.cpp:157] Top shape: 16 512 7 7 (401408)
I1202 15:43:32.484853  3689 net.cpp:165] Memory required for data: 3561291840
I1202 15:43:32.484855  3689 layer_factory.hpp:77] Creating layer res5a_branch2c
I1202 15:43:32.484860  3689 net.cpp:100] Creating Layer res5a_branch2c
I1202 15:43:32.484863  3689 net.cpp:434] res5a_branch2c <- res5a_branch2b
I1202 15:43:32.484866  3689 net.cpp:408] res5a_branch2c -> res5a_branch2c
I1202 15:43:32.486196  3689 net.cpp:150] Setting up res5a_branch2c
I1202 15:43:32.486204  3689 net.cpp:157] Top shape: 16 2048 7 7 (1605632)
I1202 15:43:32.486207  3689 net.cpp:165] Memory required for data: 3567714368
I1202 15:43:32.486209  3689 layer_factory.hpp:77] Creating layer bn5a_branch2c
I1202 15:43:32.486220  3689 net.cpp:100] Creating Layer bn5a_branch2c
I1202 15:43:32.486223  3689 net.cpp:434] bn5a_branch2c <- res5a_branch2c
I1202 15:43:32.486227  3689 net.cpp:395] bn5a_branch2c -> res5a_branch2c (in-place)
I1202 15:43:32.486348  3689 net.cpp:150] Setting up bn5a_branch2c
I1202 15:43:32.486353  3689 net.cpp:157] Top shape: 16 2048 7 7 (1605632)
I1202 15:43:32.486356  3689 net.cpp:165] Memory required for data: 3574136896
I1202 15:43:32.486361  3689 layer_factory.hpp:77] Creating layer scale5a_branch2c
I1202 15:43:32.486364  3689 net.cpp:100] Creating Layer scale5a_branch2c
I1202 15:43:32.486366  3689 net.cpp:434] scale5a_branch2c <- res5a_branch2c
I1202 15:43:32.486371  3689 net.cpp:395] scale5a_branch2c -> res5a_branch2c (in-place)
I1202 15:43:32.486404  3689 layer_factory.hpp:77] Creating layer scale5a_branch2c
I1202 15:43:32.486482  3689 net.cpp:150] Setting up scale5a_branch2c
I1202 15:43:32.486486  3689 net.cpp:157] Top shape: 16 2048 7 7 (1605632)
I1202 15:43:32.486488  3689 net.cpp:165] Memory required for data: 3580559424
I1202 15:43:32.486492  3689 layer_factory.hpp:77] Creating layer res5a
I1202 15:43:32.486496  3689 net.cpp:100] Creating Layer res5a
I1202 15:43:32.486500  3689 net.cpp:434] res5a <- res5a_branch1
I1202 15:43:32.486502  3689 net.cpp:434] res5a <- res5a_branch2c
I1202 15:43:32.486505  3689 net.cpp:408] res5a -> res5a
I1202 15:43:32.486521  3689 net.cpp:150] Setting up res5a
I1202 15:43:32.486523  3689 net.cpp:157] Top shape: 16 2048 7 7 (1605632)
I1202 15:43:32.486526  3689 net.cpp:165] Memory required for data: 3586981952
I1202 15:43:32.486527  3689 layer_factory.hpp:77] Creating layer res5a_relu
I1202 15:43:32.486531  3689 net.cpp:100] Creating Layer res5a_relu
…
I1202 15:43:32.871137  3689 layer_factory.hpp:77] Creating layer res4d_branch2a
I1202 15:43:32.871146  3689 net.cpp:100] Creating Layer res4d_branch2a
I1202 15:43:32.871150  3689 net.cpp:434] res4d_branch2a <- res4c_res4c_relu_0_split_0
I1202 15:43:32.871153  3689 net.cpp:408] res4d_branch2a -> res4d_branch2a
I1202 15:43:32.871752  3689 net.cpp:150] Setting up res4d_branch2a
I1202 15:43:32.871760  3689 net.cpp:157] Top shape: 16 256 14 14 (802816)
I1202 15:43:32.871762  3689 net.cpp:165] Memory required for data: 3185574080
I1202 15:43:32.871767  3689 layer_factory.hpp:77] Creating layer bn4d_branch2a
I1202 15:43:32.871773  3689 net.cpp:100] Creating Layer bn4d_branch2a
I1202 15:43:32.871775  3689 net.cpp:434] bn4d_branch2a <- res4d_branch2a
I1202 15:43:32.871783  3689 net.cpp:395] bn4d_branch2a -> res4d_branch2a (in-place)
I1202 15:43:32.871918  3689 net.cpp:150] Setting up bn4d_branch2a
I1202 15:43:32.871923  3689 net.cpp:157] Top shape: 16 256 14 14 (802816)
I1202 15:43:32.871925  3689 net.cpp:165] Memory required for data: 3188785344
I1202 15:43:32.871932  3689 layer_factory.hpp:77] Creating layer scale4d_branch2a
I1202 15:43:32.871937  3689 net.cpp:100] Creating Layer scale4d_branch2a
I1202 15:43:32.871938  3689 net.cpp:434] scale4d_branch2a <- res4d_branch2a
I1202 15:43:32.871942  3689 net.cpp:395] scale4d_branch2a -> res4d_branch2a (in-place)
I1202 15:43:32.871975  3689 layer_factory.hpp:77] Creating layer scale4d_branch2a
I1202 15:43:32.872046  3689 net.cpp:150] Setting up scale4d_branch2a
I1202 15:43:32.872051  3689 net.cpp:157] Top shape: 16 256 14 14 (802816)
I1202 15:43:32.872053  3689 net.cpp:165] Memory required for data: 3191996608
I1202 15:43:32.872057  3689 layer_factory.hpp:77] Creating layer res4d_branch2a_relu
I1202 15:43:32.872061  3689 net.cpp:100] Creating Layer res4d_branch2a_relu
I1202 15:43:32.872064  3689 net.cpp:434] res4d_branch2a_relu <- res4d_branch2a
I1202 15:43:32.872067  3689 net.cpp:395] res4d_branch2a_relu -> res4d_branch2a (in-place)
I1202 15:43:32.872072  3689 net.cpp:150] Setting up res4d_branch2a_relu
I1202 15:43:32.872076  3689 net.cpp:157] Top shape: 16 256 14 14 (802816)
I1202 15:43:32.872077  3689 net.cpp:165] Memory required for data: 3195207872
I1202 15:43:32.872079  3689 layer_factory.hpp:77] Creating layer res4d_branch2b
I1202 15:43:32.872084  3689 net.cpp:100] Creating Layer res4d_branch2b
I1202 15:43:32.872087  3689 net.cpp:434] res4d_branch2b <- res4d_branch2a
I1202 15:43:32.872090  3689 net.cpp:408] res4d_branch2b -> res4d_branch2b
I1202 15:43:32.873081  3689 net.cpp:150] Setting up res4d_branch2b
I1202 15:43:32.873090  3689 net.cpp:157] Top shape: 16 256 14 14 (802816)
I1202 15:43:32.873092  3689 net.cpp:165] Memory required for data: 3198419136
I1202 15:43:32.873095  3689 layer_factory.hpp:77] Creating layer bn4d_branch2b
I1202 15:43:32.873100  3689 net.cpp:100] Creating Layer bn4d_branch2b
I1202 15:43:32.873102  3689 net.cpp:434] bn4d_branch2b <- res4d_branch2b
I1202 15:43:32.873106  3689 net.cpp:395] bn4d_branch2b -> res4d_branch2b (in-place)
I1202 15:43:32.873221  3689 net.cpp:150] Setting up bn4d_branch2b
I1202 15:43:32.873225  3689 net.cpp:157] Top shape: 16 256 14 14 (802816)
I1202 15:43:32.873227  3689 net.cpp:165] Memory required for data: 3201630400
I1202 15:43:32.873232  3689 layer_factory.hpp:77] Creating layer scale4d_branch2b
I1202 15:43:32.873236  3689 net.cpp:100] Creating Layer scale4d_branch2b
I1202 15:43:32.873239  3689 net.cpp:434] scale4d_branch2b <- res4d_branch2b
I1202 15:43:32.873241  3689 net.cpp:395] scale4d_branch2b -> res4d_branch2b (in-place)
I1202 15:43:32.873268  3689 layer_factory.hpp:77] Creating layer scale4d_branch2b
I1202 15:43:32.873332  3689 net.cpp:150] Setting up scale4d_branch2b
I1202 15:43:32.873335  3689 net.cpp:157] Top shape: 16 256 14 14 (802816)
I1202 15:43:32.873337  3689 net.cpp:165] Memory required for data: 3204841664
I1202 15:43:32.873342  3689 layer_factory.hpp:77] Creating layer res4d_branch2b_relu
I1202 15:43:32.873345  3689 net.cpp:100] Creating Layer res4d_branch2b_relu
I1202 15:43:32.873347  3689 net.cpp:434] res4d_branch2b_relu <- res4d_branch2b
I1202 15:43:32.873350  3689 net.cpp:395] res4d_branch2b_relu -> res4d_branch2b (in-place)
I1202 15:43:32.873354  3689 net.cpp:150] Setting up res4d_branch2b_relu
I1202 15:43:32.873358  3689 net.cpp:157] Top shape: 16 256 14 14 (802816)
I1202 15:43:32.873359  3689 net.cpp:165] Memory required for data: 3208052928
I1202 15:43:32.873361  3689 layer_factory.hpp:77] Creating layer res4d_branch2c
I1202 15:43:32.873366  3689 net.cpp:100] Creating Layer res4d_branch2c
I1202 15:43:32.873368  3689 net.cpp:434] res4d_branch2c <- res4d_branch2b
I1202 15:43:32.873371  3689 net.cpp:408] res4d_branch2c -> res4d_branch2c
I1202 15:43:32.873865  3689 net.cpp:150] Setting up res4d_branch2c
I1202 15:43:32.873872  3689 net.cpp:157] Top shape: 16 1024 14 14 (3211264)
I1202 15:43:32.873874  3689 net.cpp:165] Memory required for data: 3220897984
I1202 15:43:32.873878  3689 layer_factory.hpp:77] Creating layer bn4d_branch2c
I1202 15:43:32.873883  3689 net.cpp:100] Creating Layer bn4d_branch2c
I1202 15:43:32.873885  3689 net.cpp:434] bn4d_branch2c <- res4d_branch2c
I1202 15:43:32.873888  3689 net.cpp:395] bn4d_branch2c -> res4d_branch2c (in-place)
I1202 15:43:32.874054  3689 net.cpp:150] Setting up bn4d_branch2c
I1202 15:43:32.874058  3689 net.cpp:157] Top shape: 16 1024 14 14 (3211264)
I1202 15:43:32.874060  3689 net.cpp:165] Memory required for data: 3233743040
I1202 15:43:32.874065  3689 layer_factory.hpp:77] Creating layer scale4d_branch2c
I1202 15:43:32.874070  3689 net.cpp:100] Creating Layer scale4d_branch2c
I1202 15:43:32.874073  3689 net.cpp:434] scale4d_branch2c <- res4d_branch2c
I1202 15:43:32.874075  3689 net.cpp:395] scale4d_branch2c -> res4d_branch2c (in-place)
I1202 15:43:32.874100  3689 layer_factory.hpp:77] Creating layer scale4d_branch2c
I1202 15:43:32.874171  3689 net.cpp:150] Setting up scale4d_branch2c
I1202 15:43:32.874173  3689 net.cpp:157] Top shape: 16 1024 14 14 (3211264)
I1202 15:43:32.874176  3689 net.cpp:165] Memory required for data: 3246588096
I1202 15:43:32.874179  3689 layer_factory.hpp:77] Creating layer res4d
I1202 15:43:32.874183  3689 net.cpp:100] Creating Layer res4d
I1202 15:43:32.874186  3689 net.cpp:434] res4d <- res4c_res4c_relu_0_split_1
I1202 15:43:32.874189  3689 net.cpp:434] res4d <- res4d_branch2c
I1202 15:43:32.874193  3689 net.cpp:408] res4d -> res4d
I1202 15:43:32.874208  3689 net.cpp:150] Setting up res4d
I1202 15:43:32.874212  3689 net.cpp:157] Top shape: 16 1024 14 14 (3211264)
I1202 15:43:32.874214  3689 net.cpp:165] Memory required for data: 3259433152
I1202 15:43:32.874217  3689 layer_factory.hpp:77] Creating layer res4d_relu
I1202 15:43:32.874219  3689 net.cpp:100] Creating Layer res4d_relu
I1202 15:43:32.874222  3689 net.cpp:434] res4d_relu <- res4d
I1202 15:43:32.874224  3689 net.cpp:395] res4d_relu -> res4d (in-place)
I1202 15:43:32.874228  3689 net.cpp:150] Setting up res4d_relu
I1202 15:43:32.874230  3689 net.cpp:157] Top shape: 16 1024 14 14 (3211264)
I1202 15:43:32.874233  3689 net.cpp:165] Memory required for data: 3272278208
I1202 15:43:32.874234  3689 layer_factory.hpp:77] Creating layer res4d_res4d_relu_0_split
I1202 15:43:32.874238  3689 net.cpp:100] Creating Layer res4d_res4d_relu_0_split
I1202 15:43:32.874240  3689 net.cpp:434] res4d_res4d_relu_0_split <- res4d
I1202 15:43:32.874243  3689 net.cpp:408] res4d_res4d_relu_0_split -> res4d_res4d_relu_0_split_0
I1202 15:43:32.874248  3689 net.cpp:408] res4d_res4d_relu_0_split -> res4d_res4d_relu_0_split_1
I1202 15:43:32.874267  3689 net.cpp:150] Setting up res4d_res4d_relu_0_split
I1202 15:43:32.874271  3689 net.cpp:157] Top shape: 16 1024 14 14 (3211264)
I1202 15:43:32.874274  3689 net.cpp:157] Top shape: 16 1024 14 14 (3211264)
I1202 15:43:32.874275  3689 net.cpp:165] Memory required for data: 3297968320
I1202 15:43:32.874277  3689 layer_factory.hpp:77] Creating layer res4e_branch2a
I1202 15:43:32.874282  3689 net.cpp:100] Creating Layer res4e_branch2a
I1202 15:43:32.874284  3689 net.cpp:434] res4e_branch2a <- res4d_res4d_relu_0_split_0
I1202 15:43:32.874287  3689 net.cpp:408] res4e_branch2a -> res4e_branch2a
I1202 15:43:32.874851  3689 net.cpp:150] Setting up res4e_branch2a
I1202 15:43:32.874858  3689 net.cpp:157] Top shape: 16 256 14 14 (802816)
I1202 15:43:32.874861  3689 net.cpp:165] Memory required for data: 3301179584
I1202 15:43:32.874863  3689 layer_factory.hpp:77] Creating layer bn4e_branch2a
I1202 15:43:32.874868  3689 net.cpp:100] Creating Layer bn4e_branch2a
I1202 15:43:32.874871  3689 net.cpp:434] bn4e_branch2a <- res4e_branch2a
I1202 15:43:32.874873  3689 net.cpp:395] bn4e_branch2a -> res4e_branch2a (in-place)
I1202 15:43:32.874984  3689 net.cpp:150] Setting up bn4e_branch2a
I1202 15:43:32.874987  3689 net.cpp:157] Top shape: 16 256 14 14 (802816)
I1202 15:43:32.874989  3689 net.cpp:165] Memory required for data: 3304390848
I1202 15:43:32.874994  3689 layer_factory.hpp:77] Creating layer scale4e_branch2a
I1202 15:43:32.874999  3689 net.cpp:100] Creating Layer scale4e_branch2a
I1202 15:43:32.875000  3689 net.cpp:434] scale4e_branch2a <- res4e_branch2a
I1202 15:43:32.875003  3689 net.cpp:395] scale4e_branch2a -> res4e_branch2a (in-place)
I1202 15:43:32.875027  3689 layer_factory.hpp:77] Creating layer scale4e_branch2a
I1202 15:43:32.875092  3689 net.cpp:150] Setting up scale4e_branch2a
I1202 15:43:32.875097  3689 net.cpp:157] Top shape: 16 256 14 14 (802816)
I1202 15:43:32.875098  3689 net.cpp:165] Memory required for data: 3307602112
I1202 15:43:32.875102  3689 layer_factory.hpp:77] Creating layer res4e_branch2a_relu
I1202 15:43:32.875105  3689 net.cpp:100] Creating Layer res4e_branch2a_relu
I1202 15:43:32.875108  3689 net.cpp:434] res4e_branch2a_relu <- res4e_branch2a
I1202 15:43:32.875111  3689 net.cpp:395] res4e_branch2a_relu -> res4e_branch2a (in-place)
I1202 15:43:32.875115  3689 net.cpp:150] Setting up res4e_branch2a_relu
I1202 15:43:32.875118  3689 net.cpp:157] Top shape: 16 256 14 14 (802816)
I1202 15:43:32.875119  3689 net.cpp:165] Memory required for data: 3310813376
I1202 15:43:32.875121  3689 layer_factory.hpp:77] Creating layer res4e_branch2b
I1202 15:43:32.875126  3689 net.cpp:100] Creating Layer res4e_branch2b
I1202 15:43:32.875128  3689 net.cpp:434] res4e_branch2b <- res4e_branch2a
I1202 15:43:32.875131  3689 net.cpp:408] res4e_branch2b -> res4e_branch2b
I1202 15:43:32.875998  3689 net.cpp:150] Setting up res4e_branch2b
I1202 15:43:32.876005  3689 net.cpp:157] Top shape: 16 256 14 14 (802816)
I1202 15:43:32.876008  3689 net.cpp:165] Memory required for data: 3314024640
I1202 15:43:32.876010  3689 layer_factory.hpp:77] Creating layer bn4e_branch2b
I1202 15:43:32.876015  3689 net.cpp:100] Creating Layer bn4e_branch2b
I1202 15:43:32.876019  3689 net.cpp:434] bn4e_branch2b <- res4e_branch2b
I1202 15:43:32.876021  3689 net.cpp:395] bn4e_branch2b -> res4e_branch2b (in-place)
I1202 15:43:32.876133  3689 net.cpp:150] Setting up bn4e_branch2b
I1202 15:43:32.876137  3689 net.cpp:157] Top shape: 16 256 14 14 (802816)
I1202 15:43:32.876139  3689 net.cpp:165] Memory required for data: 3317235904
I1202 15:43:32.876143  3689 layer_factory.hpp:77] Creating layer scale4e_branch2b
I1202 15:43:32.876147  3689 net.cpp:100] Creating Layer scale4e_branch2b
I1202 15:43:32.876149  3689 net.cpp:434] scale4e_branch2b <- res4e_branch2b
I1202 15:43:32.876153  3689 net.cpp:395] scale4e_branch2b -> res4e_branch2b (in-place)
I1202 15:43:32.876176  3689 layer_factory.hpp:77] Creating layer scale4e_branch2b
I1202 15:43:32.876240  3689 net.cpp:150] Setting up scale4e_branch2b
I1202 15:43:32.876245  3689 net.cpp:157] Top shape: 16 256 14 14 (802816)
I1202 15:43:32.876246  3689 net.cpp:165] Memory required for data: 3320447168
I1202 15:43:32.876250  3689 layer_factory.hpp:77] Creating layer res4e_branch2b_relu
I1202 15:43:32.876255  3689 net.cpp:100] Creating Layer res4e_branch2b_relu
I1202 15:43:32.876256  3689 net.cpp:434] res4e_branch2b_relu <- res4e_branch2b
I1202 15:43:32.876260  3689 net.cpp:395] res4e_branch2b_relu -> res4e_branch2b (in-place)
I1202 15:43:32.876262  3689 net.cpp:150] Setting up res4e_branch2b_relu
I1202 15:43:32.876266  3689 net.cpp:157] Top shape: 16 256 14 14 (802816)
I1202 15:43:32.876267  3689 net.cpp:165] Memory required for data: 3323658432
I1202 15:43:32.876269  3689 layer_factory.hpp:77] Creating layer res4e_branch2c
I1202 15:43:32.876273  3689 net.cpp:100] Creating Layer res4e_branch2c
I1202 15:43:32.876276  3689 net.cpp:434] res4e_branch2c <- res4e_branch2b
I1202 15:43:32.876279  3689 net.cpp:408] res4e_branch2c -> res4e_branch2c
I1202 15:43:32.876742  3689 net.cpp:150] Setting up res4e_branch2c
I1202 15:43:32.876750  3689 net.cpp:157] Top shape: 16 1024 14 14 (3211264)
I1202 15:43:32.876752  3689 net.cpp:165] Memory required for data: 3336503488
I1202 15:43:32.876755  3689 layer_factory.hpp:77] Creating layer bn4e_branch2c
I1202 15:43:32.876760  3689 net.cpp:100] Creating Layer bn4e_branch2c
I1202 15:43:32.876761  3689 net.cpp:434] bn4e_branch2c <- res4e_branch2c
I1202 15:43:32.876765  3689 net.cpp:395] bn4e_branch2c -> res4e_branch2c (in-place)
I1202 15:43:32.876888  3689 net.cpp:150] Setting up bn4e_branch2c
I1202 15:43:32.876893  3689 net.cpp:157] Top shape: 16 1024 14 14 (3211264)
I1202 15:43:32.876894  3689 net.cpp:165] Memory required for data: 3349348544
I1202 15:43:32.876899  3689 layer_factory.hpp:77] Creating layer scale4e_branch2c
I1202 15:43:32.876904  3689 net.cpp:100] Creating Layer scale4e_branch2c
I1202 15:43:32.876905  3689 net.cpp:434] scale4e_branch2c <- res4e_branch2c
I1202 15:43:32.876909  3689 net.cpp:395] scale4e_branch2c -> res4e_branch2c (in-place)
I1202 15:43:32.876947  3689 layer_factory.hpp:77] Creating layer scale4e_branch2c
I1202 15:43:32.877022  3689 net.cpp:150] Setting up scale4e_branch2c
I1202 15:43:32.877025  3689 net.cpp:157] Top shape: 16 1024 14 14 (3211264)
I1202 15:43:32.877027  3689 net.cpp:165] Memory required for data: 3362193600
I1202 15:43:32.877032  3689 layer_factory.hpp:77] Creating layer res4e
I1202 15:43:32.877041  3689 net.cpp:100] Creating Layer res4e
I1202 15:43:32.877044  3689 net.cpp:434] res4e <- res4d_res4d_relu_0_split_1
I1202 15:43:32.877048  3689 net.cpp:434] res4e <- res4e_branch2c
I1202 15:43:32.877050  3689 net.cpp:408] res4e -> res4e
I1202 15:43:32.877066  3689 net.cpp:150] Setting up res4e
I1202 15:43:32.877070  3689 net.cpp:157] Top shape: 16 1024 14 14 (3211264)
I1202 15:43:32.877073  3689 net.cpp:165] Memory required for data: 3375038656
I1202 15:43:32.877074  3689 layer_factory.hpp:77] Creating layer res4e_relu
I1202 15:43:32.877077  3689 net.cpp:100] Creating Layer res4e_relu
I1202 15:43:32.877080  3689 net.cpp:434] res4e_relu <- res4e
I1202 15:43:32.877084  3689 net.cpp:395] res4e_relu -> res4e (in-place)
I1202 15:43:32.877087  3689 net.cpp:150] Setting up res4e_relu
I1202 15:43:32.877089  3689 net.cpp:157] Top shape: 16 1024 14 14 (3211264)
I1202 15:43:32.877091  3689 net.cpp:165] Memory required for data: 3387883712
I1202 15:43:32.877094  3689 layer_factory.hpp:77] Creating layer res4e_res4e_relu_0_split
I1202 15:43:32.877097  3689 net.cpp:100] Creating Layer res4e_res4e_relu_0_split
I1202 15:43:32.877099  3689 net.cpp:434] res4e_res4e_relu_0_split <- res4e
I1202 15:43:32.877101  3689 net.cpp:408] res4e_res4e_relu_0_split -> res4e_res4e_relu_0_split_0
I1202 15:43:32.877105  3689 net.cpp:408] res4e_res4e_relu_0_split -> res4e_res4e_relu_0_split_1
I1202 15:43:32.877147  3689 net.cpp:150] Setting up res4e_res4e_relu_0_split
I1202 15:43:32.877164  3689 net.cpp:157] Top shape: 16 1024 14 14 (3211264)
I1202 15:43:32.877168  3689 net.cpp:157] Top shape: 16 1024 14 14 (3211264)
I1202 15:43:32.903396  3689 net.cpp:165] Memory required for data: 3413573824
I1202 15:43:32.903409  3689 layer_factory.hpp:77] Creating layer res4f_branch2a
I1202 15:43:32.903429  3689 net.cpp:100] Creating Layer res4f_branch2a
I1202 15:43:32.903434  3689 net.cpp:434] res4f_branch2a <- res4e_res4e_relu_0_split_0
I1202 15:43:32.903440  3689 net.cpp:408] res4f_branch2a -> res4f_branch2a
I1202 15:43:32.904091  3689 net.cpp:150] Setting up res4f_branch2a
I1202 15:43:32.904101  3689 net.cpp:157] Top shape: 16 256 14 14 (802816)
I1202 15:43:32.904104  3689 net.cpp:165] Memory required for data: 3416785088
I1202 15:43:32.904109  3689 layer_factory.hpp:77] Creating layer bn4f_branch2a
I1202 15:43:32.904114  3689 net.cpp:100] Creating Layer bn4f_branch2a
I1202 15:43:32.904116  3689 net.cpp:434] bn4f_branch2a <- res4f_branch2a
I1202 15:43:32.904120  3689 net.cpp:395] bn4f_branch2a -> res4f_branch2a (in-place)
I1202 15:43:32.904259  3689 net.cpp:150] Setting up bn4f_branch2a
I1202 15:43:32.904264  3689 net.cpp:157] Top shape: 16 256 14 14 (802816)
I1202 15:43:32.904266  3689 net.cpp:165] Memory required for data: 3419996352
I1202 15:43:32.904273  3689 layer_factory.hpp:77] Creating layer scale4f_branch2a
I1202 15:43:32.904278  3689 net.cpp:100] Creating Layer scale4f_branch2a
I1202 15:43:32.904279  3689 net.cpp:434] scale4f_branch2a <- res4f_branch2a
I1202 15:43:32.904284  3689 net.cpp:395] scale4f_branch2a -> res4f_branch2a (in-place)
I1202 15:43:32.904317  3689 layer_factory.hpp:77] Creating layer scale4f_branch2a
I1202 15:43:32.904393  3689 net.cpp:150] Setting up scale4f_branch2a
I1202 15:43:32.904397  3689 net.cpp:157] Top shape: 16 256 14 14 (802816)
I1202 15:43:32.904400  3689 net.cpp:165] Memory required for data: 3423207616
I1202 15:43:32.904404  3689 layer_factory.hpp:77] Creating layer res4f_branch2a_relu
I1202 15:43:32.904408  3689 net.cpp:100] Creating Layer res4f_branch2a_relu
I1202 15:43:32.904410  3689 net.cpp:434] res4f_branch2a_relu <- res4f_branch2a
I1202 15:43:32.904414  3689 net.cpp:395] res4f_branch2a_relu -> res4f_branch2a (in-place)
I1202 15:43:32.904424  3689 net.cpp:150] Setting up res4f_branch2a_relu
I1202 15:43:32.904428  3689 net.cpp:157] Top shape: 16 256 14 14 (802816)
I1202 15:43:32.904430  3689 net.cpp:165] Memory required for data: 3426418880
I1202 15:43:32.904433  3689 layer_factory.hpp:77] Creating layer res4f_branch2b
I1202 15:43:32.904438  3689 net.cpp:100] Creating Layer res4f_branch2b
I1202 15:43:32.904439  3689 net.cpp:434] res4f_branch2b <- res4f_branch2a
I1202 15:43:32.904444  3689 net.cpp:408] res4f_branch2b -> res4f_branch2b
I1202 15:43:32.905349  3689 net.cpp:150] Setting up res4f_branch2b
I1202 15:43:32.905357  3689 net.cpp:157] Top shape: 16 256 14 14 (802816)
I1202 15:43:32.905359  3689 net.cpp:165] Memory required for data: 3429630144
I1202 15:43:32.905364  3689 layer_factory.hpp:77] Creating layer bn4f_branch2b
I1202 15:43:32.905369  3689 net.cpp:100] Creating Layer bn4f_branch2b
I1202 15:43:32.905371  3689 net.cpp:434] bn4f_branch2b <- res4f_branch2b
I1202 15:43:32.905375  3689 net.cpp:395] bn4f_branch2b -> res4f_branch2b (in-place)
I1202 15:43:32.905542  3689 net.cpp:150] Setting up bn4f_branch2b
I1202 15:43:32.905552  3689 net.cpp:157] Top shape: 16 256 14 14 (802816)
I1202 15:43:32.905555  3689 net.cpp:165] Memory required for data: 3432841408
I1202 15:43:32.905565  3689 layer_factory.hpp:77] Creating layer scale4f_branch2b
I1202 15:43:32.905571  3689 net.cpp:100] Creating Layer scale4f_branch2b
I1202 15:43:32.905575  3689 net.cpp:434] scale4f_branch2b <- res4f_branch2b
I1202 15:43:32.905580  3689 net.cpp:395] scale4f_branch2b -> res4f_branch2b (in-place)
I1202 15:43:32.905637  3689 layer_factory.hpp:77] Creating layer scale4f_branch2b
I1202 15:43:32.905717  3689 net.cpp:150] Setting up scale4f_branch2b
I1202 15:43:32.905722  3689 net.cpp:157] Top shape: 16 256 14 14 (802816)
I1202 15:43:32.905725  3689 net.cpp:165] Memory required for data: 3436052672
I1202 15:43:32.905728  3689 layer_factory.hpp:77] Creating layer res4f_branch2b_relu
I1202 15:43:32.905733  3689 net.cpp:100] Creating Layer res4f_branch2b_relu
I1202 15:43:32.905736  3689 net.cpp:434] res4f_branch2b_relu <- res4f_branch2b
I1202 15:43:32.905740  3689 net.cpp:395] res4f_branch2b_relu -> res4f_branch2b (in-place)
I1202 15:43:32.905743  3689 net.cpp:150] Setting up res4f_branch2b_relu
I1202 15:43:32.905746  3689 net.cpp:157] Top shape: 16 256 14 14 (802816)
I1202 15:43:32.905748  3689 net.cpp:165] Memory required for data: 3439263936
I1202 15:43:32.905750  3689 layer_factory.hpp:77] Creating layer res4f_branch2c
I1202 15:43:32.905756  3689 net.cpp:100] Creating Layer res4f_branch2c
I1202 15:43:32.905758  3689 net.cpp:434] res4f_branch2c <- res4f_branch2b
I1202 15:43:32.905761  3689 net.cpp:408] res4f_branch2c -> res4f_branch2c
I1202 15:43:32.906286  3689 net.cpp:150] Setting up res4f_branch2c
I1202 15:43:32.906293  3689 net.cpp:157] Top shape: 16 1024 14 14 (3211264)
I1202 15:43:32.906296  3689 net.cpp:165] Memory required for data: 3452108992
I1202 15:43:32.906299  3689 layer_factory.hpp:77] Creating layer bn4f_branch2c
I1202 15:43:32.906304  3689 net.cpp:100] Creating Layer bn4f_branch2c
I1202 15:43:32.906307  3689 net.cpp:434] bn4f_branch2c <- res4f_branch2c
I1202 15:43:32.906311  3689 net.cpp:395] bn4f_branch2c -> res4f_branch2c (in-place)
I1202 15:43:32.906445  3689 net.cpp:150] Setting up bn4f_branch2c
I1202 15:43:32.906450  3689 net.cpp:157] Top shape: 16 1024 14 14 (3211264)
I1202 15:43:32.906452  3689 net.cpp:165] Memory required for data: 3464954048
I1202 15:43:32.906478  3689 layer_factory.hpp:77] Creating layer scale4f_branch2c
I1202 15:43:32.906484  3689 net.cpp:100] Creating Layer scale4f_branch2c
I1202 15:43:32.906486  3689 net.cpp:434] scale4f_branch2c <- res4f_branch2c
I1202 15:43:32.906491  3689 net.cpp:395] scale4f_branch2c -> res4f_branch2c (in-place)
I1202 15:43:32.906518  3689 layer_factory.hpp:77] Creating layer scale4f_branch2c
I1202 15:43:32.906592  3689 net.cpp:150] Setting up scale4f_branch2c
I1202 15:43:32.906597  3689 net.cpp:157] Top shape: 16 1024 14 14 (3211264)
I1202 15:43:32.906599  3689 net.cpp:165] Memory required for data: 3477799104
I1202 15:43:32.906604  3689 layer_factory.hpp:77] Creating layer res4f
I1202 15:43:32.906608  3689 net.cpp:100] Creating Layer res4f
I1202 15:43:32.906611  3689 net.cpp:434] res4f <- res4e_res4e_relu_0_split_1
I1202 15:43:32.906615  3689 net.cpp:434] res4f <- res4f_branch2c
I1202 15:43:32.906617  3689 net.cpp:408] res4f -> res4f
I1202 15:43:32.906633  3689 net.cpp:150] Setting up res4f
I1202 15:43:32.906637  3689 net.cpp:157] Top shape: 16 1024 14 14 (3211264)
I1202 15:43:32.906639  3689 net.cpp:165] Memory required for data: 3490644160
I1202 15:43:32.906641  3689 layer_factory.hpp:77] Creating layer res4f_relu
I1202 15:43:32.906646  3689 net.cpp:100] Creating Layer res4f_relu
I1202 15:43:32.906647  3689 net.cpp:434] res4f_relu <- res4f
I1202 15:43:32.906651  3689 net.cpp:395] res4f_relu -> res4f (in-place)
I1202 15:43:32.906654  3689 net.cpp:150] Setting up res4f_relu
I1202 15:43:32.906657  3689 net.cpp:157] Top shape: 16 1024 14 14 (3211264)
I1202 15:43:32.906659  3689 net.cpp:165] Memory required for data: 3503489216
I1202 15:43:32.906667  3689 layer_factory.hpp:77] Creating layer res4f_res4f_relu_0_split
I1202 15:43:32.906672  3689 net.cpp:100] Creating Layer res4f_res4f_relu_0_split
I1202 15:43:32.906673  3689 net.cpp:434] res4f_res4f_relu_0_split <- res4f
I1202 15:43:32.906677  3689 net.cpp:408] res4f_res4f_relu_0_split -> res4f_res4f_relu_0_split_0
I1202 15:43:32.906680  3689 net.cpp:408] res4f_res4f_relu_0_split -> res4f_res4f_relu_0_split_1
I1202 15:43:32.906704  3689 net.cpp:150] Setting up res4f_res4f_relu_0_split
I1202 15:43:32.906708  3689 net.cpp:157] Top shape: 16 1024 14 14 (3211264)
I1202 15:43:32.906710  3689 net.cpp:157] Top shape: 16 1024 14 14 (3211264)
I1202 15:43:32.906713  3689 net.cpp:165] Memory required for data: 3529179328
I1202 15:43:32.906714  3689 layer_factory.hpp:77] Creating layer res5a_branch1
I1202 15:43:32.906719  3689 net.cpp:100] Creating Layer res5a_branch1
I1202 15:43:32.932531  3689 net.cpp:434] res5a_branch1 <- res4f_res4f_relu_0_split_0
I1202 15:43:32.932555  3689 net.cpp:408] res5a_branch1 -> res5a_branch1
I1202 15:43:32.936287  3689 net.cpp:150] Setting up res5a_branch1
I1202 15:43:32.936311  3689 net.cpp:157] Top shape: 16 2048 7 7 (1605632)
I1202 15:43:32.936314  3689 net.cpp:165] Memory required for data: 3535601856
I1202 15:43:32.936321  3689 layer_factory.hpp:77] Creating layer bn5a_branch1
I1202 15:43:32.936329  3689 net.cpp:100] Creating Layer bn5a_branch1
I1202 15:43:32.936343  3689 net.cpp:434] bn5a_branch1 <- res5a_branch1
I1202 15:43:32.936348  3689 net.cpp:395] bn5a_branch1 -> res5a_branch1 (in-place)
I1202 15:43:32.936563  3689 net.cpp:150] Setting up bn5a_branch1
I1202 15:43:32.936568  3689 net.cpp:157] Top shape: 16 2048 7 7 (1605632)
I1202 15:43:32.936570  3689 net.cpp:165] Memory required for data: 3542024384
I1202 15:43:32.936575  3689 layer_factory.hpp:77] Creating layer scale5a_branch1
I1202 15:43:32.936581  3689 net.cpp:100] Creating Layer scale5a_branch1
I1202 15:43:32.936583  3689 net.cpp:434] scale5a_branch1 <- res5a_branch1
I1202 15:43:32.936586  3689 net.cpp:395] scale5a_branch1 -> res5a_branch1 (in-place)
I1202 15:43:32.936622  3689 layer_factory.hpp:77] Creating layer scale5a_branch1
I1202 15:43:32.936698  3689 net.cpp:150] Setting up scale5a_branch1
I1202 15:43:32.936703  3689 net.cpp:157] Top shape: 16 2048 7 7 (1605632)
I1202 15:43:32.936705  3689 net.cpp:165] Memory required for data: 3548446912
I1202 15:43:32.936708  3689 layer_factory.hpp:77] Creating layer res5a_branch2a
I1202 15:43:32.936715  3689 net.cpp:100] Creating Layer res5a_branch2a
I1202 15:43:32.936718  3689 net.cpp:434] res5a_branch2a <- res4f_res4f_relu_0_split_1
I1202 15:43:32.936722  3689 net.cpp:408] res5a_branch2a -> res5a_branch2a
I1202 15:43:32.937691  3689 net.cpp:150] Setting up res5a_branch2a
I1202 15:43:32.937700  3689 net.cpp:157] Top shape: 16 512 7 7 (401408)
I1202 15:43:32.937703  3689 net.cpp:165] Memory required for data: 3550052544
I1202 15:43:32.937706  3689 layer_factory.hpp:77] Creating layer bn5a_branch2a
I1202 15:43:32.937711  3689 net.cpp:100] Creating Layer bn5a_branch2a
I1202 15:43:32.937714  3689 net.cpp:434] bn5a_branch2a <- res5a_branch2a
I1202 15:43:32.937718  3689 net.cpp:395] bn5a_branch2a -> res5a_branch2a (in-place)
I1202 15:43:32.937850  3689 net.cpp:150] Setting up bn5a_branch2a
I1202 15:43:32.937855  3689 net.cpp:157] Top shape: 16 512 7 7 (401408)
I1202 15:43:32.937857  3689 net.cpp:165] Memory required for data: 3551658176
I1202 15:43:32.937862  3689 layer_factory.hpp:77] Creating layer scale5a_branch2a
I1202 15:43:32.937868  3689 net.cpp:100] Creating Layer scale5a_branch2a
I1202 15:43:32.937870  3689 net.cpp:434] scale5a_branch2a <- res5a_branch2a
I1202 15:43:32.937873  3689 net.cpp:395] scale5a_branch2a -> res5a_branch2a (in-place)
I1202 15:43:32.937902  3689 layer_factory.hpp:77] Creating layer scale5a_branch2a
I1202 15:43:32.937975  3689 net.cpp:150] Setting up scale5a_branch2a
I1202 15:43:32.937979  3689 net.cpp:157] Top shape: 16 512 7 7 (401408)
I1202 15:43:32.937981  3689 net.cpp:165] Memory required for data: 3553263808
I1202 15:43:32.937985  3689 layer_factory.hpp:77] Creating layer res5a_branch2a_relu
I1202 15:43:32.937989  3689 net.cpp:100] Creating Layer res5a_branch2a_relu
I1202 15:43:32.937991  3689 net.cpp:434] res5a_branch2a_relu <- res5a_branch2a
I1202 15:43:32.937995  3689 net.cpp:395] res5a_branch2a_relu -> res5a_branch2a (in-place)
I1202 15:43:32.937999  3689 net.cpp:150] Setting up res5a_branch2a_relu
I1202 15:43:32.938002  3689 net.cpp:157] Top shape: 16 512 7 7 (401408)
I1202 15:43:32.938004  3689 net.cpp:165] Memory required for data: 3554869440
I1202 15:43:32.938006  3689 layer_factory.hpp:77] Creating layer res5a_branch2b
I1202 15:43:32.938012  3689 net.cpp:100] Creating Layer res5a_branch2b
I1202 15:43:32.938014  3689 net.cpp:434] res5a_branch2b <- res5a_branch2a
I1202 15:43:32.938017  3689 net.cpp:408] res5a_branch2b -> res5a_branch2b
I1202 15:43:32.941907  3689 net.cpp:150] Setting up res5a_branch2b
I1202 15:43:32.941929  3689 net.cpp:157] Top shape: 16 512 7 7 (401408)
I1202 15:43:32.941932  3689 net.cpp:165] Memory required for data: 3556475072
I1202 15:43:32.941938  3689 layer_factory.hpp:77] Creating layer bn5a_branch2b
I1202 15:43:32.941946  3689 net.cpp:100] Creating Layer bn5a_branch2b
I1202 15:43:32.941951  3689 net.cpp:434] bn5a_branch2b <- res5a_branch2b
I1202 15:43:32.941956  3689 net.cpp:395] bn5a_branch2b -> res5a_branch2b (in-place)
I1202 15:43:32.942126  3689 net.cpp:150] Setting up bn5a_branch2b
I1202 15:43:32.942131  3689 net.cpp:157] Top shape: 16 512 7 7 (401408)
I1202 15:43:32.942132  3689 net.cpp:165] Memory required for data: 3558080704
I1202 15:43:32.942138  3689 layer_factory.hpp:77] Creating layer scale5a_branch2b
I1202 15:43:32.942143  3689 net.cpp:100] Creating Layer scale5a_branch2b
I1202 15:43:32.942147  3689 net.cpp:434] scale5a_branch2b <- res5a_branch2b
I1202 15:43:32.942149  3689 net.cpp:395] scale5a_branch2b -> res5a_branch2b (in-place)
I1202 15:43:32.942181  3689 layer_factory.hpp:77] Creating layer scale5a_branch2b
I1202 15:43:32.942266  3689 net.cpp:150] Setting up scale5a_branch2b
I1202 15:43:32.942270  3689 net.cpp:157] Top shape: 16 512 7 7 (401408)
I1202 15:43:32.942272  3689 net.cpp:165] Memory required for data: 3559686336
I1202 15:43:32.942276  3689 layer_factory.hpp:77] Creating layer res5a_branch2b_relu
I1202 15:43:32.942281  3689 net.cpp:100] Creating Layer res5a_branch2b_relu
I1202 15:43:32.942282  3689 net.cpp:434] res5a_branch2b_relu <- res5a_branch2b
I1202 15:43:32.942286  3689 net.cpp:395] res5a_branch2b_relu -> res5a_branch2b (in-place)
I1202 15:43:32.942289  3689 net.cpp:150] Setting up res5a_branch2b_relu
I1202 15:43:32.942292  3689 net.cpp:157] Top shape: 16 512 7 7 (401408)
I1202 15:43:32.942294  3689 net.cpp:165] Memory required for data: 3561291968
I1202 15:43:32.942296  3689 layer_factory.hpp:77] Creating layer res5a_branch2c
I1202 15:43:32.942302  3689 net.cpp:100] Creating Layer res5a_branch2c
I1202 15:43:32.942304  3689 net.cpp:434] res5a_branch2c <- res5a_branch2b
I1202 15:43:32.942308  3689 net.cpp:408] res5a_branch2c -> res5a_branch2c
I1202 15:43:32.943744  3689 net.cpp:150] Setting up res5a_branch2c
I1202 15:43:32.943753  3689 net.cpp:157] Top shape: 16 2048 7 7 (1605632)
I1202 15:43:32.943755  3689 net.cpp:165] Memory required for data: 3567714496
I1202 15:43:32.943758  3689 layer_factory.hpp:77] Creating layer bn5a_branch2c
I1202 15:43:32.943763  3689 net.cpp:100] Creating Layer bn5a_branch2c
I1202 15:43:32.943766  3689 net.cpp:434] bn5a_branch2c <- res5a_branch2c
I1202 15:43:32.943769  3689 net.cpp:395] bn5a_branch2c -> res5a_branch2c (in-place)
I1202 15:43:32.943900  3689 net.cpp:150] Setting up bn5a_branch2c
I1202 15:43:32.943904  3689 net.cpp:157] Top shape: 16 2048 7 7 (1605632)
I1202 15:43:32.943907  3689 net.cpp:165] Memory required for data: 3574137024
I1202 15:43:32.943912  3689 layer_factory.hpp:77] Creating layer scale5a_branch2c
I1202 15:43:32.943915  3689 net.cpp:100] Creating Layer scale5a_branch2c
I1202 15:43:32.943917  3689 net.cpp:434] scale5a_branch2c <- res5a_branch2c
I1202 15:43:32.943920  3689 net.cpp:395] scale5a_branch2c -> res5a_branch2c (in-place)
I1202 15:43:32.943948  3689 layer_factory.hpp:77] Creating layer scale5a_branch2c
I1202 15:43:32.944022  3689 net.cpp:150] Setting up scale5a_branch2c
I1202 15:43:32.944026  3689 net.cpp:157] Top shape: 16 2048 7 7 (1605632)
I1202 15:43:32.944028  3689 net.cpp:165] Memory required for data: 3580559552
I1202 15:43:32.944031  3689 layer_factory.hpp:77] Creating layer res5a
I1202 15:43:32.944036  3689 net.cpp:100] Creating Layer res5a
I1202 15:43:32.944038  3689 net.cpp:434] res5a <- res5a_branch1
I1202 15:43:32.944041  3689 net.cpp:434] res5a <- res5a_branch2c
I1202 15:43:32.944044  3689 net.cpp:408] res5a -> res5a
I1202 15:43:32.944061  3689 net.cpp:150] Setting up res5a
I1202 15:43:32.944064  3689 net.cpp:157] Top shape: 16 2048 7 7 (1605632)
I1202 15:43:32.944066  3689 net.cpp:165] Memory required for data: 3586982080
I1202 15:43:32.963238  3689 layer_factory.hpp:77] Creating layer res5a_relu
I1202 15:43:32.963249  3689 net.cpp:100] Creating Layer res5a_relu
I1202 15:43:32.963253  3689 net.cpp:434] res5a_relu <- res5a
I1202 15:43:32.963260  3689 net.cpp:395] res5a_relu -> res5a (in-place)
I1202 15:43:32.963268  3689 net.cpp:150] Setting up res5a_relu
I1202 15:43:32.963273  3689 net.cpp:157] Top shape: 16 2048 7 7 (1605632)
I1202 15:43:32.963274  3689 net.cpp:165] Memory required for data: 3593404608
I1202 15:43:32.963276  3689 layer_factory.hpp:77] Creating layer res5a_res5a_relu_0_split
I1202 15:43:32.963280  3689 net.cpp:100] Creating Layer res5a_res5a_relu_0_split
I1202 15:43:32.963282  3689 net.cpp:434] res5a_res5a_relu_0_split <- res5a
I1202 15:43:32.963286  3689 net.cpp:408] res5a_res5a_relu_0_split -> res5a_res5a_relu_0_split_0
I1202 15:43:32.963290  3689 net.cpp:408] res5a_res5a_relu_0_split -> res5a_res5a_relu_0_split_1
I1202 15:43:32.963333  3689 net.cpp:150] Setting up res5a_res5a_relu_0_split
I1202 15:43:32.963337  3689 net.cpp:157] Top shape: 16 2048 7 7 (1605632)
I1202 15:43:32.963340  3689 net.cpp:157] Top shape: 16 2048 7 7 (1605632)
I1202 15:43:32.963342  3689 net.cpp:165] Memory required for data: 3606249664
I1202 15:43:32.963345  3689 layer_factory.hpp:77] Creating layer res5b_branch2a
I1202 15:43:32.963351  3689 net.cpp:100] Creating Layer res5b_branch2a
I1202 15:43:32.963353  3689 net.cpp:434] res5b_branch2a <- res5a_res5a_relu_0_split_0
I1202 15:43:32.963357  3689 net.cpp:408] res5b_branch2a -> res5b_branch2a
I1202 15:43:32.964938  3689 net.cpp:150] Setting up res5b_branch2a
I1202 15:43:32.964953  3689 net.cpp:157] Top shape: 16 512 7 7 (401408)
I1202 15:43:32.964956  3689 net.cpp:165] Memory required for data: 3607855296
I1202 15:43:32.964961  3689 layer_factory.hpp:77] Creating layer bn5b_branch2a
I1202 15:43:32.964967  3689 net.cpp:100] Creating Layer bn5b_branch2a
I1202 15:43:32.964972  3689 net.cpp:434] bn5b_branch2a <- res5b_branch2a
I1202 15:43:32.964977  3689 net.cpp:395] bn5b_branch2a -> res5b_branch2a (in-place)
I1202 15:43:32.965124  3689 net.cpp:150] Setting up bn5b_branch2a
I1202 15:43:32.965129  3689 net.cpp:157] Top shape: 16 512 7 7 (401408)
I1202 15:43:32.965131  3689 net.cpp:165] Memory required for data: 3609460928
I1202 15:43:32.965137  3689 layer_factory.hpp:77] Creating layer scale5b_branch2a
I1202 15:43:32.965142  3689 net.cpp:100] Creating Layer scale5b_branch2a
I1202 15:43:32.965144  3689 net.cpp:434] scale5b_branch2a <- res5b_branch2a
I1202 15:43:32.965147  3689 net.cpp:395] scale5b_branch2a -> res5b_branch2a (in-place)
I1202 15:43:32.965181  3689 layer_factory.hpp:77] Creating layer scale5b_branch2a
I1202 15:43:32.965257  3689 net.cpp:150] Setting up scale5b_branch2a
I1202 15:43:32.965261  3689 net.cpp:157] Top shape: 16 512 7 7 (401408)
I1202 15:43:32.965263  3689 net.cpp:165] Memory required for data: 3611066560
I1202 15:43:32.965267  3689 layer_factory.hpp:77] Creating layer res5b_branch2a_relu
I1202 15:43:32.965272  3689 net.cpp:100] Creating Layer res5b_branch2a_relu
I1202 15:43:32.965276  3689 net.cpp:434] res5b_branch2a_relu <- res5b_branch2a
I1202 15:43:32.965278  3689 net.cpp:395] res5b_branch2a_relu -> res5b_branch2a (in-place)
I1202 15:43:32.965282  3689 net.cpp:150] Setting up res5b_branch2a_relu
I1202 15:43:32.965286  3689 net.cpp:157] Top shape: 16 512 7 7 (401408)
I1202 15:43:32.965287  3689 net.cpp:165] Memory required for data: 3612672192
I1202 15:43:32.965289  3689 layer_factory.hpp:77] Creating layer res5b_branch2b
I1202 15:43:32.965296  3689 net.cpp:100] Creating Layer res5b_branch2b
I1202 15:43:32.965298  3689 net.cpp:434] res5b_branch2b <- res5b_branch2a
I1202 15:43:32.965301  3689 net.cpp:408] res5b_branch2b -> res5b_branch2b
I1202 15:43:32.971490  3689 net.cpp:150] Setting up res5b_branch2b
I1202 15:43:32.971535  3689 net.cpp:157] Top shape: 16 512 7 7 (401408)
I1202 15:43:32.971544  3689 net.cpp:165] Memory required for data: 3614277824
I1202 15:43:32.971559  3689 layer_factory.hpp:77] Creating layer bn5b_branch2b
I1202 15:43:32.971576  3689 net.cpp:100] Creating Layer bn5b_branch2b
I1202 15:43:32.971587  3689 net.cpp:434] bn5b_branch2b <- res5b_branch2b
I1202 15:43:32.971598  3689 net.cpp:395] bn5b_branch2b -> res5b_branch2b (in-place)
I1202 15:43:32.971956  3689 net.cpp:150] Setting up bn5b_branch2b
I1202 15:43:32.971966  3689 net.cpp:157] Top shape: 16 512 7 7 (401408)
I1202 15:43:32.971971  3689 net.cpp:165] Memory required for data: 3615883456
I1202 15:43:32.971982  3689 layer_factory.hpp:77] Creating layer scale5b_branch2b
I1202 15:43:32.971990  3689 net.cpp:100] Creating Layer scale5b_branch2b
I1202 15:43:32.971997  3689 net.cpp:434] scale5b_branch2b <- res5b_branch2b
I1202 15:43:32.972002  3689 net.cpp:395] scale5b_branch2b -> res5b_branch2b (in-place)
I1202 15:43:32.972066  3689 layer_factory.hpp:77] Creating layer scale5b_branch2b
I1202 15:43:32.972261  3689 net.cpp:150] Setting up scale5b_branch2b
I1202 15:43:32.972272  3689 net.cpp:157] Top shape: 16 512 7 7 (401408)
I1202 15:43:32.972277  3689 net.cpp:165] Memory required for data: 3617489088
I1202 15:43:32.972288  3689 layer_factory.hpp:77] Creating layer res5b_branch2b_relu
I1202 15:43:32.972301  3689 net.cpp:100] Creating Layer res5b_branch2b_relu
I1202 15:43:32.972306  3689 net.cpp:434] res5b_branch2b_relu <- res5b_branch2b
I1202 15:43:32.972316  3689 net.cpp:395] res5b_branch2b_relu -> res5b_branch2b (in-place)
I1202 15:43:32.972328  3689 net.cpp:150] Setting up res5b_branch2b_relu
I1202 15:43:32.972337  3689 net.cpp:157] Top shape: 16 512 7 7 (401408)
I1202 15:43:32.972342  3689 net.cpp:165] Memory required for data: 3619094720
I1202 15:43:32.972347  3689 layer_factory.hpp:77] Creating layer res5b_branch2c
I1202 15:43:32.972360  3689 net.cpp:100] Creating Layer res5b_branch2c
I1202 15:43:32.972368  3689 net.cpp:434] res5b_branch2c <- res5b_branch2b
I1202 15:43:32.972379  3689 net.cpp:408] res5b_branch2c -> res5b_branch2c
I1202 15:43:32.974953  3689 net.cpp:150] Setting up res5b_branch2c
I1202 15:43:32.974975  3689 net.cpp:157] Top shape: 16 2048 7 7 (1605632)
I1202 15:43:32.974978  3689 net.cpp:165] Memory required for data: 3625517248
I1202 15:43:32.974987  3689 layer_factory.hpp:77] Creating layer bn5b_branch2c
I1202 15:43:32.974997  3689 net.cpp:100] Creating Layer bn5b_branch2c
I1202 15:43:32.975002  3689 net.cpp:434] bn5b_branch2c <- res5b_branch2c
I1202 15:43:32.975008  3689 net.cpp:395] bn5b_branch2c -> res5b_branch2c (in-place)
I1202 15:43:32.975256  3689 net.cpp:150] Setting up bn5b_branch2c
I1202 15:43:32.975265  3689 net.cpp:157] Top shape: 16 2048 7 7 (1605632)
I1202 15:43:32.975268  3689 net.cpp:165] Memory required for data: 3631939776
I1202 15:43:32.975277  3689 layer_factory.hpp:77] Creating layer scale5b_branch2c
I1202 15:43:32.975287  3689 net.cpp:100] Creating Layer scale5b_branch2c
I1202 15:43:32.975291  3689 net.cpp:434] scale5b_branch2c <- res5b_branch2c
I1202 15:43:32.975296  3689 net.cpp:395] scale5b_branch2c -> res5b_branch2c (in-place)
I1202 15:43:32.975347  3689 layer_factory.hpp:77] Creating layer scale5b_branch2c
I1202 15:43:32.975467  3689 net.cpp:150] Setting up scale5b_branch2c
I1202 15:43:32.975473  3689 net.cpp:157] Top shape: 16 2048 7 7 (1605632)
I1202 15:43:32.975476  3689 net.cpp:165] Memory required for data: 3638362304
I1202 15:43:32.975482  3689 layer_factory.hpp:77] Creating layer res5b
I1202 15:43:32.975491  3689 net.cpp:100] Creating Layer res5b
I1202 15:43:32.975494  3689 net.cpp:434] res5b <- res5a_res5a_relu_0_split_1
I1202 15:43:32.975499  3689 net.cpp:434] res5b <- res5b_branch2c
I1202 15:43:32.975504  3689 net.cpp:408] res5b -> res5b
I1202 15:43:32.975528  3689 net.cpp:150] Setting up res5b
I1202 15:43:32.975533  3689 net.cpp:157] Top shape: 16 2048 7 7 (1605632)
I1202 15:43:32.975536  3689 net.cpp:165] Memory required for data: 3644784832
I1202 15:43:32.975540  3689 layer_factory.hpp:77] Creating layer res5b_relu
I1202 15:43:32.975548  3689 net.cpp:100] Creating Layer res5b_relu
I1202 15:43:32.975550  3689 net.cpp:434] res5b_relu <- res5b
I1202 15:43:32.975559  3689 net.cpp:395] res5b_relu -> res5b (in-place)
I1202 15:43:32.975565  3689 net.cpp:150] Setting up res5b_relu
I1202 15:43:32.975569  3689 net.cpp:157] Top shape: 16 2048 7 7 (1605632)
I1202 15:43:32.975572  3689 net.cpp:165] Memory required for data: 3651207360
I1202 15:43:32.975576  3689 layer_factory.hpp:77] Creating layer res5b_res5b_relu_0_split
I1202 15:43:32.975581  3689 net.cpp:100] Creating Layer res5b_res5b_relu_0_split
I1202 15:43:32.975584  3689 net.cpp:434] res5b_res5b_relu_0_split <- res5b
I1202 15:43:32.975589  3689 net.cpp:408] res5b_res5b_relu_0_split -> res5b_res5b_relu_0_split_0
I1202 15:43:32.975594  3689 net.cpp:408] res5b_res5b_relu_0_split -> res5b_res5b_relu_0_split_1
I1202 15:43:32.975633  3689 net.cpp:150] Setting up res5b_res5b_relu_0_split
I1202 15:43:32.975639  3689 net.cpp:157] Top shape: 16 2048 7 7 (1605632)
I1202 15:43:32.975643  3689 net.cpp:157] Top shape: 16 2048 7 7 (1605632)
I1202 15:43:32.975646  3689 net.cpp:165] Memory required for data: 3664052416
I1202 15:43:32.975649  3689 layer_factory.hpp:77] Creating layer res5c_branch2a
I1202 15:43:32.975657  3689 net.cpp:100] Creating Layer res5c_branch2a
I1202 15:43:32.975661  3689 net.cpp:434] res5c_branch2a <- res5b_res5b_relu_0_split_0
I1202 15:43:32.975666  3689 net.cpp:408] res5c_branch2a -> res5c_branch2a
I1202 15:43:32.977933  3689 net.cpp:150] Setting up res5c_branch2a
I1202 15:43:32.977964  3689 net.cpp:157] Top shape: 16 512 7 7 (401408)
I1202 15:43:32.977972  3689 net.cpp:165] Memory required for data: 3665658048
I1202 15:43:32.977982  3689 layer_factory.hpp:77] Creating layer bn5c_branch2a
I1202 15:43:32.977999  3689 net.cpp:100] Creating Layer bn5c_branch2a
I1202 15:43:32.978008  3689 net.cpp:434] bn5c_branch2a <- res5c_branch2a
I1202 15:43:32.978018  3689 net.cpp:395] bn5c_branch2a -> res5c_branch2a (in-place)
I1202 15:43:32.978327  3689 net.cpp:150] Setting up bn5c_branch2a
I1202 15:43:32.978338  3689 net.cpp:157] Top shape: 16 512 7 7 (401408)
I1202 15:43:32.978343  3689 net.cpp:165] Memory required for data: 3667263680
I1202 15:43:32.978355  3689 layer_factory.hpp:77] Creating layer scale5c_branch2a
I1202 15:43:32.978368  3689 net.cpp:100] Creating Layer scale5c_branch2a
I1202 15:43:32.978374  3689 net.cpp:434] scale5c_branch2a <- res5c_branch2a
I1202 15:43:32.978381  3689 net.cpp:395] scale5c_branch2a -> res5c_branch2a (in-place)
I1202 15:43:32.978446  3689 layer_factory.hpp:77] Creating layer scale5c_branch2a
I1202 15:43:32.978608  3689 net.cpp:150] Setting up scale5c_branch2a
I1202 15:43:32.978619  3689 net.cpp:157] Top shape: 16 512 7 7 (401408)
I1202 15:43:32.978622  3689 net.cpp:165] Memory required for data: 3668869312
I1202 15:43:32.978628  3689 layer_factory.hpp:77] Creating layer res5c_branch2a_relu
I1202 15:43:32.978636  3689 net.cpp:100] Creating Layer res5c_branch2a_relu
I1202 15:43:32.978638  3689 net.cpp:434] res5c_branch2a_relu <- res5c_branch2a
I1202 15:43:32.978644  3689 net.cpp:395] res5c_branch2a_relu -> res5c_branch2a (in-place)
I1202 15:43:32.978652  3689 net.cpp:150] Setting up res5c_branch2a_relu
I1202 15:43:32.978655  3689 net.cpp:157] Top shape: 16 512 7 7 (401408)
I1202 15:43:32.978658  3689 net.cpp:165] Memory required for data: 3670474944
I1202 15:43:32.978662  3689 layer_factory.hpp:77] Creating layer res5c_branch2b
I1202 15:43:32.978670  3689 net.cpp:100] Creating Layer res5c_branch2b
I1202 15:43:32.978673  3689 net.cpp:434] res5c_branch2b <- res5c_branch2a
I1202 15:43:32.978678  3689 net.cpp:408] res5c_branch2b -> res5c_branch2b
I1202 15:43:32.983366  3689 net.cpp:150] Setting up res5c_branch2b
I1202 15:43:32.983393  3689 net.cpp:157] Top shape: 16 512 7 7 (401408)
I1202 15:43:32.983397  3689 net.cpp:165] Memory required for data: 3672080576
I1202 15:43:32.983405  3689 layer_factory.hpp:77] Creating layer bn5c_branch2b
I1202 15:43:32.983417  3689 net.cpp:100] Creating Layer bn5c_branch2b
I1202 15:43:32.983422  3689 net.cpp:434] bn5c_branch2b <- res5c_branch2b
I1202 15:43:32.983428  3689 net.cpp:395] bn5c_branch2b -> res5c_branch2b (in-place)
I1202 15:43:32.983639  3689 net.cpp:150] Setting up bn5c_branch2b
I1202 15:43:32.983645  3689 net.cpp:157] Top shape: 16 512 7 7 (401408)
I1202 15:43:32.983649  3689 net.cpp:165] Memory required for data: 3673686208
I1202 15:43:32.983655  3689 layer_factory.hpp:77] Creating layer scale5c_branch2b
I1202 15:43:32.983662  3689 net.cpp:100] Creating Layer scale5c_branch2b
I1202 15:43:32.983665  3689 net.cpp:434] scale5c_branch2b <- res5c_branch2b
I1202 15:43:32.983675  3689 net.cpp:395] scale5c_branch2b -> res5c_branch2b (in-place)
I1202 15:43:32.983719  3689 layer_factory.hpp:77] Creating layer scale5c_branch2b
I1202 15:43:32.983829  3689 net.cpp:150] Setting up scale5c_branch2b
I1202 15:43:32.983835  3689 net.cpp:157] Top shape: 16 512 7 7 (401408)
I1202 15:43:32.983839  3689 net.cpp:165] Memory required for data: 3675291840
I1202 15:43:32.983844  3689 layer_factory.hpp:77] Creating layer res5c_branch2b_relu
I1202 15:43:32.983850  3689 net.cpp:100] Creating Layer res5c_branch2b_relu
I1202 15:43:32.983853  3689 net.cpp:434] res5c_branch2b_relu <- res5c_branch2b
I1202 15:43:32.983857  3689 net.cpp:395] res5c_branch2b_relu -> res5c_branch2b (in-place)
I1202 15:43:32.983862  3689 net.cpp:150] Setting up res5c_branch2b_relu
I1202 15:43:32.983867  3689 net.cpp:157] Top shape: 16 512 7 7 (401408)
I1202 15:43:32.983870  3689 net.cpp:165] Memory required for data: 3676897472
I1202 15:43:32.983872  3689 layer_factory.hpp:77] Creating layer res5c_branch2c
I1202 15:43:32.983881  3689 net.cpp:100] Creating Layer res5c_branch2c
I1202 15:43:32.983885  3689 net.cpp:434] res5c_branch2c <- res5c_branch2b
I1202 15:43:32.983891  3689 net.cpp:408] res5c_branch2c -> res5c_branch2c
I1202 15:43:32.985872  3689 net.cpp:150] Setting up res5c_branch2c
I1202 15:43:32.985884  3689 net.cpp:157] Top shape: 16 2048 7 7 (1605632)
I1202 15:43:32.985888  3689 net.cpp:165] Memory required for data: 3683320000
I1202 15:43:32.985893  3689 layer_factory.hpp:77] Creating layer bn5c_branch2c
I1202 15:43:32.985899  3689 net.cpp:100] Creating Layer bn5c_branch2c
I1202 15:43:32.985903  3689 net.cpp:434] bn5c_branch2c <- res5c_branch2c
I1202 15:43:32.985908  3689 net.cpp:395] bn5c_branch2c -> res5c_branch2c (in-place)
I1202 15:43:32.986107  3689 net.cpp:150] Setting up bn5c_branch2c
I1202 15:43:32.986114  3689 net.cpp:157] Top shape: 16 2048 7 7 (1605632)
I1202 15:43:32.986117  3689 net.cpp:165] Memory required for data: 3689742528
I1202 15:43:32.986124  3689 layer_factory.hpp:77] Creating layer scale5c_branch2c
I1202 15:43:32.986129  3689 net.cpp:100] Creating Layer scale5c_branch2c
I1202 15:43:32.986133  3689 net.cpp:434] scale5c_branch2c <- res5c_branch2c
I1202 15:43:32.986137  3689 net.cpp:395] scale5c_branch2c -> res5c_branch2c (in-place)
I1202 15:43:32.986520  3689 layer_factory.hpp:77] Creating layer scale5c_branch2c
I1202 15:43:32.986639  3689 net.cpp:150] Setting up scale5c_branch2c
I1202 15:43:32.986645  3689 net.cpp:157] Top shape: 16 2048 7 7 (1605632)
I1202 15:43:32.986649  3689 net.cpp:165] Memory required for data: 3696165056
I1202 15:43:32.986654  3689 layer_factory.hpp:77] Creating layer res5c
I1202 15:43:32.986660  3689 net.cpp:100] Creating Layer res5c
I1202 15:43:32.986663  3689 net.cpp:434] res5c <- res5b_res5b_relu_0_split_1
I1202 15:43:32.986668  3689 net.cpp:434] res5c <- res5c_branch2c
I1202 15:43:32.986675  3689 net.cpp:408] res5c -> res5c
I1202 15:43:32.986697  3689 net.cpp:150] Setting up res5c
I1202 15:43:32.986703  3689 net.cpp:157] Top shape: 16 2048 7 7 (1605632)
I1202 15:43:32.986707  3689 net.cpp:165] Memory required for data: 3702587584
I1202 15:43:32.986711  3689 layer_factory.hpp:77] Creating layer res5c_relu
I1202 15:43:32.986716  3689 net.cpp:100] Creating Layer res5c_relu
I1202 15:43:32.986718  3689 net.cpp:434] res5c_relu <- res5c
I1202 15:43:32.986722  3689 net.cpp:395] res5c_relu -> res5c (in-place)
I1202 15:43:32.986727  3689 net.cpp:150] Setting up res5c_relu
I1202 15:43:32.986732  3689 net.cpp:157] Top shape: 16 2048 7 7 (1605632)
I1202 15:43:32.986734  3689 net.cpp:165] Memory required for data: 3709010112
I1202 15:43:32.996121  3689 layer_factory.hpp:77] Creating layer pool5
I1202 15:43:32.996139  3689 net.cpp:100] Creating Layer pool5
I1202 15:43:32.996143  3689 net.cpp:434] pool5 <- res5c
I1202 15:43:32.996150  3689 net.cpp:408] pool5 -> pool5
I1202 15:43:32.996187  3689 net.cpp:150] Setting up pool5
I1202 15:43:32.996194  3689 net.cpp:157] Top shape: 16 2048 1 1 (32768)
I1202 15:43:32.996197  3689 net.cpp:165] Memory required for data: 3709141184
I1202 15:43:32.996201  3689 layer_factory.hpp:77] Creating layer fc8_
I1202 15:43:32.996208  3689 net.cpp:100] Creating Layer fc8_
I1202 15:43:32.996212  3689 net.cpp:434] fc8_ <- pool5
I1202 15:43:32.996218  3689 net.cpp:408] fc8_ -> fc8_
I1202 15:43:33.031800  3689 net.cpp:150] Setting up fc8_
I1202 15:43:33.031819  3689 net.cpp:157] Top shape: 16 751 (12016)
I1202 15:43:33.031822  3689 net.cpp:165] Memory required for data: 3709189248
I1202 15:43:33.031829  3689 layer_factory.hpp:77] Creating layer fc8__fc8__0_split
I1202 15:43:33.031836  3689 net.cpp:100] Creating Layer fc8__fc8__0_split
I1202 15:43:33.031841  3689 net.cpp:434] fc8__fc8__0_split <- fc8_
I1202 15:43:33.031846  3689 net.cpp:408] fc8__fc8__0_split -> fc8__fc8__0_split_0
I1202 15:43:33.031852  3689 net.cpp:408] fc8__fc8__0_split -> fc8__fc8__0_split_1
I1202 15:43:33.031882  3689 net.cpp:150] Setting up fc8__fc8__0_split
I1202 15:43:33.031885  3689 net.cpp:157] Top shape: 16 751 (12016)
I1202 15:43:33.031888  3689 net.cpp:157] Top shape: 16 751 (12016)
I1202 15:43:33.031890  3689 net.cpp:165] Memory required for data: 3709285376
I1202 15:43:33.031893  3689 layer_factory.hpp:77] Creating layer loss
I1202 15:43:33.031898  3689 net.cpp:100] Creating Layer loss
I1202 15:43:33.031899  3689 net.cpp:434] loss <- fc8__fc8__0_split_0
I1202 15:43:33.031903  3689 net.cpp:434] loss <- label_data_1_split_0
I1202 15:43:33.031906  3689 net.cpp:408] loss -> loss
…
